saved_model_schema_version: 1
meta_graphs {
  meta_info_def {
    stripped_op_list {
      op {
        name: "Add"
        input_arg {
          name: "x"
          type_attr: "T"
        }
        input_arg {
          name: "y"
          type_attr: "T"
        }
        output_arg {
          name: "z"
          type_attr: "T"
        }
        attr {
          name: "T"
          type: "type"
          allowed_values {
            list {
              type: DT_BFLOAT16
              type: DT_HALF
              type: DT_FLOAT
              type: DT_DOUBLE
              type: DT_UINT8
              type: DT_INT8
              type: DT_INT16
              type: DT_INT32
              type: DT_INT64
              type: DT_COMPLEX64
              type: DT_COMPLEX128
              type: DT_STRING
            }
          }
        }
      }
      op {
        name: "AddN"
        input_arg {
          name: "inputs"
          type_attr: "T"
          number_attr: "N"
        }
        output_arg {
          name: "sum"
          type_attr: "T"
        }
        attr {
          name: "N"
          type: "int"
          has_minimum: true
          minimum: 1
        }
        attr {
          name: "T"
          type: "type"
          allowed_values {
            list {
              type: DT_FLOAT
              type: DT_DOUBLE
              type: DT_INT32
              type: DT_UINT8
              type: DT_INT16
              type: DT_INT8
              type: DT_COMPLEX64
              type: DT_INT64
              type: DT_QINT8
              type: DT_QUINT8
              type: DT_QINT32
              type: DT_BFLOAT16
              type: DT_UINT16
              type: DT_COMPLEX128
              type: DT_HALF
              type: DT_UINT32
              type: DT_UINT64
              type: DT_VARIANT
            }
          }
        }
        is_aggregate: true
        is_commutative: true
      }
      op {
        name: "Assert"
        input_arg {
          name: "condition"
          type: DT_BOOL
        }
        input_arg {
          name: "data"
          type_list_attr: "T"
        }
        attr {
          name: "T"
          type: "list(type)"
          has_minimum: true
          minimum: 1
        }
        attr {
          name: "summarize"
          type: "int"
          default_value {
            i: 3
          }
        }
        is_stateful: true
      }
      op {
        name: "AssignAddVariableOp"
        input_arg {
          name: "resource"
          type: DT_RESOURCE
        }
        input_arg {
          name: "value"
          type_attr: "dtype"
        }
        attr {
          name: "dtype"
          type: "type"
        }
        is_stateful: true
      }
      op {
        name: "AssignVariableOp"
        input_arg {
          name: "resource"
          type: DT_RESOURCE
        }
        input_arg {
          name: "value"
          type_attr: "dtype"
        }
        attr {
          name: "dtype"
          type: "type"
        }
        is_stateful: true
      }
      op {
        name: "BiasAdd"
        input_arg {
          name: "value"
          type_attr: "T"
        }
        input_arg {
          name: "bias"
          type_attr: "T"
        }
        output_arg {
          name: "output"
          type_attr: "T"
        }
        attr {
          name: "T"
          type: "type"
          allowed_values {
            list {
              type: DT_FLOAT
              type: DT_DOUBLE
              type: DT_INT32
              type: DT_UINT8
              type: DT_INT16
              type: DT_INT8
              type: DT_COMPLEX64
              type: DT_INT64
              type: DT_QINT8
              type: DT_QUINT8
              type: DT_QINT32
              type: DT_BFLOAT16
              type: DT_UINT16
              type: DT_COMPLEX128
              type: DT_HALF
              type: DT_UINT32
              type: DT_UINT64
            }
          }
        }
        attr {
          name: "data_format"
          type: "string"
          default_value {
            s: "NHWC"
          }
          allowed_values {
            list {
              s: "NHWC"
              s: "NCHW"
            }
          }
        }
      }
      op {
        name: "BiasAddGrad"
        input_arg {
          name: "out_backprop"
          type_attr: "T"
        }
        output_arg {
          name: "output"
          type_attr: "T"
        }
        attr {
          name: "T"
          type: "type"
          allowed_values {
            list {
              type: DT_FLOAT
              type: DT_DOUBLE
              type: DT_INT32
              type: DT_UINT8
              type: DT_INT16
              type: DT_INT8
              type: DT_COMPLEX64
              type: DT_INT64
              type: DT_QINT8
              type: DT_QUINT8
              type: DT_QINT32
              type: DT_BFLOAT16
              type: DT_UINT16
              type: DT_COMPLEX128
              type: DT_HALF
              type: DT_UINT32
              type: DT_UINT64
            }
          }
        }
        attr {
          name: "data_format"
          type: "string"
          default_value {
            s: "NHWC"
          }
          allowed_values {
            list {
              s: "NHWC"
              s: "NCHW"
            }
          }
        }
      }
      op {
        name: "BroadcastGradientArgs"
        input_arg {
          name: "s0"
          type_attr: "T"
        }
        input_arg {
          name: "s1"
          type_attr: "T"
        }
        output_arg {
          name: "r0"
          type_attr: "T"
        }
        output_arg {
          name: "r1"
          type_attr: "T"
        }
        attr {
          name: "T"
          type: "type"
          default_value {
            type: DT_INT32
          }
          allowed_values {
            list {
              type: DT_INT32
              type: DT_INT64
            }
          }
        }
      }
      op {
        name: "Cast"
        input_arg {
          name: "x"
          type_attr: "SrcT"
        }
        output_arg {
          name: "y"
          type_attr: "DstT"
        }
        attr {
          name: "SrcT"
          type: "type"
        }
        attr {
          name: "DstT"
          type: "type"
        }
        attr {
          name: "Truncate"
          type: "bool"
          default_value {
            b: false
          }
        }
      }
      op {
        name: "ConcatV2"
        input_arg {
          name: "values"
          type_attr: "T"
          number_attr: "N"
        }
        input_arg {
          name: "axis"
          type_attr: "Tidx"
        }
        output_arg {
          name: "output"
          type_attr: "T"
        }
        attr {
          name: "N"
          type: "int"
          has_minimum: true
          minimum: 2
        }
        attr {
          name: "T"
          type: "type"
        }
        attr {
          name: "Tidx"
          type: "type"
          default_value {
            type: DT_INT32
          }
          allowed_values {
            list {
              type: DT_INT32
              type: DT_INT64
            }
          }
        }
      }
      op {
        name: "Const"
        output_arg {
          name: "output"
          type_attr: "dtype"
        }
        attr {
          name: "value"
          type: "tensor"
        }
        attr {
          name: "dtype"
          type: "type"
        }
      }
      op {
        name: "DenseToDenseSetOperation"
        input_arg {
          name: "set1"
          type_attr: "T"
        }
        input_arg {
          name: "set2"
          type_attr: "T"
        }
        output_arg {
          name: "result_indices"
          type: DT_INT64
        }
        output_arg {
          name: "result_values"
          type_attr: "T"
        }
        output_arg {
          name: "result_shape"
          type: DT_INT64
        }
        attr {
          name: "set_operation"
          type: "string"
        }
        attr {
          name: "validate_indices"
          type: "bool"
          default_value {
            b: true
          }
        }
        attr {
          name: "T"
          type: "type"
          allowed_values {
            list {
              type: DT_INT8
              type: DT_INT16
              type: DT_INT32
              type: DT_INT64
              type: DT_UINT8
              type: DT_UINT16
              type: DT_STRING
            }
          }
        }
      }
      op {
        name: "DivNoNan"
        input_arg {
          name: "x"
          type_attr: "T"
        }
        input_arg {
          name: "y"
          type_attr: "T"
        }
        output_arg {
          name: "z"
          type_attr: "T"
        }
        attr {
          name: "T"
          type: "type"
          allowed_values {
            list {
              type: DT_FLOAT
              type: DT_DOUBLE
            }
          }
        }
      }
      op {
        name: "DynamicStitch"
        input_arg {
          name: "indices"
          type: DT_INT32
          number_attr: "N"
        }
        input_arg {
          name: "data"
          type_attr: "T"
          number_attr: "N"
        }
        output_arg {
          name: "merged"
          type_attr: "T"
        }
        attr {
          name: "N"
          type: "int"
          has_minimum: true
          minimum: 1
        }
        attr {
          name: "T"
          type: "type"
        }
      }
      op {
        name: "Equal"
        input_arg {
          name: "x"
          type_attr: "T"
        }
        input_arg {
          name: "y"
          type_attr: "T"
        }
        output_arg {
          name: "z"
          type: DT_BOOL
        }
        attr {
          name: "T"
          type: "type"
          allowed_values {
            list {
              type: DT_BFLOAT16
              type: DT_HALF
              type: DT_FLOAT
              type: DT_DOUBLE
              type: DT_UINT8
              type: DT_INT8
              type: DT_INT16
              type: DT_INT32
              type: DT_INT64
              type: DT_COMPLEX64
              type: DT_QUINT8
              type: DT_QINT8
              type: DT_QINT32
              type: DT_STRING
              type: DT_BOOL
              type: DT_COMPLEX128
            }
          }
        }
        is_commutative: true
      }
      op {
        name: "Exp"
        input_arg {
          name: "x"
          type_attr: "T"
        }
        output_arg {
          name: "y"
          type_attr: "T"
        }
        attr {
          name: "T"
          type: "type"
          allowed_values {
            list {
              type: DT_BFLOAT16
              type: DT_HALF
              type: DT_FLOAT
              type: DT_DOUBLE
              type: DT_COMPLEX64
              type: DT_COMPLEX128
            }
          }
        }
      }
      op {
        name: "ExpandDims"
        input_arg {
          name: "input"
          type_attr: "T"
        }
        input_arg {
          name: "dim"
          type_attr: "Tdim"
        }
        output_arg {
          name: "output"
          type_attr: "T"
        }
        attr {
          name: "T"
          type: "type"
        }
        attr {
          name: "Tdim"
          type: "type"
          default_value {
            type: DT_INT32
          }
          allowed_values {
            list {
              type: DT_INT32
              type: DT_INT64
            }
          }
        }
      }
      op {
        name: "Fill"
        input_arg {
          name: "dims"
          type_attr: "index_type"
        }
        input_arg {
          name: "value"
          type_attr: "T"
        }
        output_arg {
          name: "output"
          type_attr: "T"
        }
        attr {
          name: "T"
          type: "type"
        }
        attr {
          name: "index_type"
          type: "type"
          default_value {
            type: DT_INT32
          }
          allowed_values {
            list {
              type: DT_INT32
              type: DT_INT64
            }
          }
        }
      }
      op {
        name: "FloorDiv"
        input_arg {
          name: "x"
          type_attr: "T"
        }
        input_arg {
          name: "y"
          type_attr: "T"
        }
        output_arg {
          name: "z"
          type_attr: "T"
        }
        attr {
          name: "T"
          type: "type"
          allowed_values {
            list {
              type: DT_BFLOAT16
              type: DT_HALF
              type: DT_FLOAT
              type: DT_DOUBLE
              type: DT_UINT8
              type: DT_INT8
              type: DT_UINT16
              type: DT_INT16
              type: DT_INT32
              type: DT_INT64
              type: DT_COMPLEX64
              type: DT_COMPLEX128
            }
          }
        }
      }
      op {
        name: "FloorMod"
        input_arg {
          name: "x"
          type_attr: "T"
        }
        input_arg {
          name: "y"
          type_attr: "T"
        }
        output_arg {
          name: "z"
          type_attr: "T"
        }
        attr {
          name: "T"
          type: "type"
          allowed_values {
            list {
              type: DT_INT32
              type: DT_INT64
              type: DT_BFLOAT16
              type: DT_HALF
              type: DT_FLOAT
              type: DT_DOUBLE
            }
          }
        }
      }
      op {
        name: "Greater"
        input_arg {
          name: "x"
          type_attr: "T"
        }
        input_arg {
          name: "y"
          type_attr: "T"
        }
        output_arg {
          name: "z"
          type: DT_BOOL
        }
        attr {
          name: "T"
          type: "type"
          allowed_values {
            list {
              type: DT_FLOAT
              type: DT_DOUBLE
              type: DT_INT32
              type: DT_UINT8
              type: DT_INT16
              type: DT_INT8
              type: DT_INT64
              type: DT_BFLOAT16
              type: DT_UINT16
              type: DT_HALF
              type: DT_UINT32
              type: DT_UINT64
            }
          }
        }
      }
      op {
        name: "GreaterEqual"
        input_arg {
          name: "x"
          type_attr: "T"
        }
        input_arg {
          name: "y"
          type_attr: "T"
        }
        output_arg {
          name: "z"
          type: DT_BOOL
        }
        attr {
          name: "T"
          type: "type"
          allowed_values {
            list {
              type: DT_FLOAT
              type: DT_DOUBLE
              type: DT_INT32
              type: DT_UINT8
              type: DT_INT16
              type: DT_INT8
              type: DT_INT64
              type: DT_BFLOAT16
              type: DT_UINT16
              type: DT_HALF
              type: DT_UINT32
              type: DT_UINT64
            }
          }
        }
      }
      op {
        name: "Identity"
        input_arg {
          name: "input"
          type_attr: "T"
        }
        output_arg {
          name: "output"
          type_attr: "T"
        }
        attr {
          name: "T"
          type: "type"
        }
      }
      op {
        name: "LessEqual"
        input_arg {
          name: "x"
          type_attr: "T"
        }
        input_arg {
          name: "y"
          type_attr: "T"
        }
        output_arg {
          name: "z"
          type: DT_BOOL
        }
        attr {
          name: "T"
          type: "type"
          allowed_values {
            list {
              type: DT_FLOAT
              type: DT_DOUBLE
              type: DT_INT32
              type: DT_UINT8
              type: DT_INT16
              type: DT_INT8
              type: DT_INT64
              type: DT_BFLOAT16
              type: DT_UINT16
              type: DT_HALF
              type: DT_UINT32
              type: DT_UINT64
            }
          }
        }
      }
      op {
        name: "Log"
        input_arg {
          name: "x"
          type_attr: "T"
        }
        output_arg {
          name: "y"
          type_attr: "T"
        }
        attr {
          name: "T"
          type: "type"
          allowed_values {
            list {
              type: DT_BFLOAT16
              type: DT_HALF
              type: DT_FLOAT
              type: DT_DOUBLE
              type: DT_COMPLEX64
              type: DT_COMPLEX128
            }
          }
        }
      }
      op {
        name: "Log1p"
        input_arg {
          name: "x"
          type_attr: "T"
        }
        output_arg {
          name: "y"
          type_attr: "T"
        }
        attr {
          name: "T"
          type: "type"
          allowed_values {
            list {
              type: DT_BFLOAT16
              type: DT_HALF
              type: DT_FLOAT
              type: DT_DOUBLE
              type: DT_COMPLEX64
              type: DT_COMPLEX128
            }
          }
        }
      }
      op {
        name: "MatMul"
        input_arg {
          name: "a"
          type_attr: "T"
        }
        input_arg {
          name: "b"
          type_attr: "T"
        }
        output_arg {
          name: "product"
          type_attr: "T"
        }
        attr {
          name: "transpose_a"
          type: "bool"
          default_value {
            b: false
          }
        }
        attr {
          name: "transpose_b"
          type: "bool"
          default_value {
            b: false
          }
        }
        attr {
          name: "T"
          type: "type"
          allowed_values {
            list {
              type: DT_BFLOAT16
              type: DT_HALF
              type: DT_FLOAT
              type: DT_DOUBLE
              type: DT_INT32
              type: DT_INT64
              type: DT_COMPLEX64
              type: DT_COMPLEX128
            }
          }
        }
      }
      op {
        name: "Maximum"
        input_arg {
          name: "x"
          type_attr: "T"
        }
        input_arg {
          name: "y"
          type_attr: "T"
        }
        output_arg {
          name: "z"
          type_attr: "T"
        }
        attr {
          name: "T"
          type: "type"
          allowed_values {
            list {
              type: DT_BFLOAT16
              type: DT_HALF
              type: DT_FLOAT
              type: DT_DOUBLE
              type: DT_INT32
              type: DT_INT64
            }
          }
        }
        is_commutative: true
      }
      op {
        name: "Mean"
        input_arg {
          name: "input"
          type_attr: "T"
        }
        input_arg {
          name: "reduction_indices"
          type_attr: "Tidx"
        }
        output_arg {
          name: "output"
          type_attr: "T"
        }
        attr {
          name: "keep_dims"
          type: "bool"
          default_value {
            b: false
          }
        }
        attr {
          name: "T"
          type: "type"
          allowed_values {
            list {
              type: DT_FLOAT
              type: DT_DOUBLE
              type: DT_INT32
              type: DT_UINT8
              type: DT_INT16
              type: DT_INT8
              type: DT_COMPLEX64
              type: DT_INT64
              type: DT_QINT8
              type: DT_QUINT8
              type: DT_QINT32
              type: DT_BFLOAT16
              type: DT_UINT16
              type: DT_COMPLEX128
              type: DT_HALF
              type: DT_UINT32
              type: DT_UINT64
            }
          }
        }
        attr {
          name: "Tidx"
          type: "type"
          default_value {
            type: DT_INT32
          }
          allowed_values {
            list {
              type: DT_INT32
              type: DT_INT64
            }
          }
        }
      }
      op {
        name: "Merge"
        input_arg {
          name: "inputs"
          type_attr: "T"
          number_attr: "N"
        }
        output_arg {
          name: "output"
          type_attr: "T"
        }
        output_arg {
          name: "value_index"
          type: DT_INT32
        }
        attr {
          name: "T"
          type: "type"
        }
        attr {
          name: "N"
          type: "int"
          has_minimum: true
          minimum: 1
        }
      }
      op {
        name: "MergeV2Checkpoints"
        input_arg {
          name: "checkpoint_prefixes"
          type: DT_STRING
        }
        input_arg {
          name: "destination_prefix"
          type: DT_STRING
        }
        attr {
          name: "delete_old_dirs"
          type: "bool"
          default_value {
            b: true
          }
        }
        is_stateful: true
      }
      op {
        name: "Minimum"
        input_arg {
          name: "x"
          type_attr: "T"
        }
        input_arg {
          name: "y"
          type_attr: "T"
        }
        output_arg {
          name: "z"
          type_attr: "T"
        }
        attr {
          name: "T"
          type: "type"
          allowed_values {
            list {
              type: DT_BFLOAT16
              type: DT_HALF
              type: DT_FLOAT
              type: DT_DOUBLE
              type: DT_INT32
              type: DT_INT64
            }
          }
        }
        is_commutative: true
      }
      op {
        name: "Mul"
        input_arg {
          name: "x"
          type_attr: "T"
        }
        input_arg {
          name: "y"
          type_attr: "T"
        }
        output_arg {
          name: "z"
          type_attr: "T"
        }
        attr {
          name: "T"
          type: "type"
          allowed_values {
            list {
              type: DT_BFLOAT16
              type: DT_HALF
              type: DT_FLOAT
              type: DT_DOUBLE
              type: DT_UINT8
              type: DT_INT8
              type: DT_UINT16
              type: DT_INT16
              type: DT_INT32
              type: DT_INT64
              type: DT_COMPLEX64
              type: DT_COMPLEX128
            }
          }
        }
        is_commutative: true
      }
      op {
        name: "Neg"
        input_arg {
          name: "x"
          type_attr: "T"
        }
        output_arg {
          name: "y"
          type_attr: "T"
        }
        attr {
          name: "T"
          type: "type"
          allowed_values {
            list {
              type: DT_BFLOAT16
              type: DT_HALF
              type: DT_FLOAT
              type: DT_DOUBLE
              type: DT_INT32
              type: DT_INT64
              type: DT_COMPLEX64
              type: DT_COMPLEX128
            }
          }
        }
      }
      op {
        name: "NoOp"
      }
      op {
        name: "Pack"
        input_arg {
          name: "values"
          type_attr: "T"
          number_attr: "N"
        }
        output_arg {
          name: "output"
          type_attr: "T"
        }
        attr {
          name: "N"
          type: "int"
          has_minimum: true
          minimum: 1
        }
        attr {
          name: "T"
          type: "type"
        }
        attr {
          name: "axis"
          type: "int"
          default_value {
            i: 0
          }
        }
      }
      op {
        name: "Placeholder"
        output_arg {
          name: "output"
          type_attr: "dtype"
        }
        attr {
          name: "dtype"
          type: "type"
        }
        attr {
          name: "shape"
          type: "shape"
          default_value {
            shape {
              unknown_rank: true
            }
          }
        }
      }
      op {
        name: "PlaceholderWithDefault"
        input_arg {
          name: "input"
          type_attr: "dtype"
        }
        output_arg {
          name: "output"
          type_attr: "dtype"
        }
        attr {
          name: "dtype"
          type: "type"
        }
        attr {
          name: "shape"
          type: "shape"
        }
      }
      op {
        name: "Pow"
        input_arg {
          name: "x"
          type_attr: "T"
        }
        input_arg {
          name: "y"
          type_attr: "T"
        }
        output_arg {
          name: "z"
          type_attr: "T"
        }
        attr {
          name: "T"
          type: "type"
          allowed_values {
            list {
              type: DT_BFLOAT16
              type: DT_FLOAT
              type: DT_HALF
              type: DT_DOUBLE
              type: DT_INT32
              type: DT_INT64
              type: DT_COMPLEX64
              type: DT_COMPLEX128
            }
          }
        }
      }
      op {
        name: "Prod"
        input_arg {
          name: "input"
          type_attr: "T"
        }
        input_arg {
          name: "reduction_indices"
          type_attr: "Tidx"
        }
        output_arg {
          name: "output"
          type_attr: "T"
        }
        attr {
          name: "keep_dims"
          type: "bool"
          default_value {
            b: false
          }
        }
        attr {
          name: "T"
          type: "type"
          allowed_values {
            list {
              type: DT_FLOAT
              type: DT_DOUBLE
              type: DT_INT32
              type: DT_UINT8
              type: DT_INT16
              type: DT_INT8
              type: DT_COMPLEX64
              type: DT_INT64
              type: DT_QINT8
              type: DT_QUINT8
              type: DT_QINT32
              type: DT_BFLOAT16
              type: DT_UINT16
              type: DT_COMPLEX128
              type: DT_HALF
              type: DT_UINT32
              type: DT_UINT64
            }
          }
        }
        attr {
          name: "Tidx"
          type: "type"
          default_value {
            type: DT_INT32
          }
          allowed_values {
            list {
              type: DT_INT32
              type: DT_INT64
            }
          }
        }
      }
      op {
        name: "RandomUniform"
        input_arg {
          name: "shape"
          type_attr: "T"
        }
        output_arg {
          name: "output"
          type_attr: "dtype"
        }
        attr {
          name: "seed"
          type: "int"
          default_value {
            i: 0
          }
        }
        attr {
          name: "seed2"
          type: "int"
          default_value {
            i: 0
          }
        }
        attr {
          name: "dtype"
          type: "type"
          allowed_values {
            list {
              type: DT_HALF
              type: DT_BFLOAT16
              type: DT_FLOAT
              type: DT_DOUBLE
            }
          }
        }
        attr {
          name: "T"
          type: "type"
          allowed_values {
            list {
              type: DT_INT32
              type: DT_INT64
            }
          }
        }
        is_stateful: true
      }
      op {
        name: "Range"
        input_arg {
          name: "start"
          type_attr: "Tidx"
        }
        input_arg {
          name: "limit"
          type_attr: "Tidx"
        }
        input_arg {
          name: "delta"
          type_attr: "Tidx"
        }
        output_arg {
          name: "output"
          type_attr: "Tidx"
        }
        attr {
          name: "Tidx"
          type: "type"
          default_value {
            type: DT_INT32
          }
          allowed_values {
            list {
              type: DT_BFLOAT16
              type: DT_FLOAT
              type: DT_DOUBLE
              type: DT_INT32
              type: DT_INT64
            }
          }
        }
      }
      op {
        name: "ReadVariableOp"
        input_arg {
          name: "resource"
          type: DT_RESOURCE
        }
        output_arg {
          name: "value"
          type_attr: "dtype"
        }
        attr {
          name: "dtype"
          type: "type"
        }
        is_stateful: true
      }
      op {
        name: "RealDiv"
        input_arg {
          name: "x"
          type_attr: "T"
        }
        input_arg {
          name: "y"
          type_attr: "T"
        }
        output_arg {
          name: "z"
          type_attr: "T"
        }
        attr {
          name: "T"
          type: "type"
          allowed_values {
            list {
              type: DT_BFLOAT16
              type: DT_HALF
              type: DT_FLOAT
              type: DT_DOUBLE
              type: DT_UINT8
              type: DT_INT8
              type: DT_UINT16
              type: DT_INT16
              type: DT_INT32
              type: DT_INT64
              type: DT_COMPLEX64
              type: DT_COMPLEX128
            }
          }
        }
      }
      op {
        name: "Reciprocal"
        input_arg {
          name: "x"
          type_attr: "T"
        }
        output_arg {
          name: "y"
          type_attr: "T"
        }
        attr {
          name: "T"
          type: "type"
          allowed_values {
            list {
              type: DT_BFLOAT16
              type: DT_HALF
              type: DT_FLOAT
              type: DT_DOUBLE
              type: DT_INT32
              type: DT_INT64
              type: DT_COMPLEX64
              type: DT_COMPLEX128
            }
          }
        }
      }
      op {
        name: "Reshape"
        input_arg {
          name: "tensor"
          type_attr: "T"
        }
        input_arg {
          name: "shape"
          type_attr: "Tshape"
        }
        output_arg {
          name: "output"
          type_attr: "T"
        }
        attr {
          name: "T"
          type: "type"
        }
        attr {
          name: "Tshape"
          type: "type"
          default_value {
            type: DT_INT32
          }
          allowed_values {
            list {
              type: DT_INT32
              type: DT_INT64
            }
          }
        }
      }
      op {
        name: "RestoreV2"
        input_arg {
          name: "prefix"
          type: DT_STRING
        }
        input_arg {
          name: "tensor_names"
          type: DT_STRING
        }
        input_arg {
          name: "shape_and_slices"
          type: DT_STRING
        }
        output_arg {
          name: "tensors"
          type_list_attr: "dtypes"
        }
        attr {
          name: "dtypes"
          type: "list(type)"
          has_minimum: true
          minimum: 1
        }
        is_stateful: true
      }
      op {
        name: "SaveV2"
        input_arg {
          name: "prefix"
          type: DT_STRING
        }
        input_arg {
          name: "tensor_names"
          type: DT_STRING
        }
        input_arg {
          name: "shape_and_slices"
          type: DT_STRING
        }
        input_arg {
          name: "tensors"
          type_list_attr: "dtypes"
        }
        attr {
          name: "dtypes"
          type: "list(type)"
          has_minimum: true
          minimum: 1
        }
        is_stateful: true
      }
      op {
        name: "Select"
        input_arg {
          name: "condition"
          type: DT_BOOL
        }
        input_arg {
          name: "t"
          type_attr: "T"
        }
        input_arg {
          name: "e"
          type_attr: "T"
        }
        output_arg {
          name: "output"
          type_attr: "T"
        }
        attr {
          name: "T"
          type: "type"
        }
      }
      op {
        name: "Shape"
        input_arg {
          name: "input"
          type_attr: "T"
        }
        output_arg {
          name: "output"
          type_attr: "out_type"
        }
        attr {
          name: "T"
          type: "type"
        }
        attr {
          name: "out_type"
          type: "type"
          default_value {
            type: DT_INT32
          }
          allowed_values {
            list {
              type: DT_INT32
              type: DT_INT64
            }
          }
        }
      }
      op {
        name: "ShardedFilename"
        input_arg {
          name: "basename"
          type: DT_STRING
        }
        input_arg {
          name: "shard"
          type: DT_INT32
        }
        input_arg {
          name: "num_shards"
          type: DT_INT32
        }
        output_arg {
          name: "filename"
          type: DT_STRING
        }
      }
      op {
        name: "Sigmoid"
        input_arg {
          name: "x"
          type_attr: "T"
        }
        output_arg {
          name: "y"
          type_attr: "T"
        }
        attr {
          name: "T"
          type: "type"
          allowed_values {
            list {
              type: DT_BFLOAT16
              type: DT_HALF
              type: DT_FLOAT
              type: DT_DOUBLE
              type: DT_COMPLEX64
              type: DT_COMPLEX128
            }
          }
        }
      }
      op {
        name: "SigmoidGrad"
        input_arg {
          name: "y"
          type_attr: "T"
        }
        input_arg {
          name: "dy"
          type_attr: "T"
        }
        output_arg {
          name: "z"
          type_attr: "T"
        }
        attr {
          name: "T"
          type: "type"
          allowed_values {
            list {
              type: DT_BFLOAT16
              type: DT_HALF
              type: DT_FLOAT
              type: DT_DOUBLE
              type: DT_COMPLEX64
              type: DT_COMPLEX128
            }
          }
        }
      }
      op {
        name: "Size"
        input_arg {
          name: "input"
          type_attr: "T"
        }
        output_arg {
          name: "output"
          type_attr: "out_type"
        }
        attr {
          name: "T"
          type: "type"
        }
        attr {
          name: "out_type"
          type: "type"
          default_value {
            type: DT_INT32
          }
          allowed_values {
            list {
              type: DT_INT32
              type: DT_INT64
            }
          }
        }
      }
      op {
        name: "Sqrt"
        input_arg {
          name: "x"
          type_attr: "T"
        }
        output_arg {
          name: "y"
          type_attr: "T"
        }
        attr {
          name: "T"
          type: "type"
          allowed_values {
            list {
              type: DT_BFLOAT16
              type: DT_HALF
              type: DT_FLOAT
              type: DT_DOUBLE
              type: DT_COMPLEX64
              type: DT_COMPLEX128
            }
          }
        }
      }
      op {
        name: "Square"
        input_arg {
          name: "x"
          type_attr: "T"
        }
        output_arg {
          name: "y"
          type_attr: "T"
        }
        attr {
          name: "T"
          type: "type"
          allowed_values {
            list {
              type: DT_BFLOAT16
              type: DT_HALF
              type: DT_FLOAT
              type: DT_DOUBLE
              type: DT_INT32
              type: DT_INT64
              type: DT_COMPLEX64
              type: DT_COMPLEX128
            }
          }
        }
      }
      op {
        name: "StringJoin"
        input_arg {
          name: "inputs"
          type: DT_STRING
          number_attr: "N"
        }
        output_arg {
          name: "output"
          type: DT_STRING
        }
        attr {
          name: "N"
          type: "int"
          has_minimum: true
          minimum: 1
        }
        attr {
          name: "separator"
          type: "string"
          default_value {
            s: ""
          }
        }
      }
      op {
        name: "Sub"
        input_arg {
          name: "x"
          type_attr: "T"
        }
        input_arg {
          name: "y"
          type_attr: "T"
        }
        output_arg {
          name: "z"
          type_attr: "T"
        }
        attr {
          name: "T"
          type: "type"
          allowed_values {
            list {
              type: DT_BFLOAT16
              type: DT_HALF
              type: DT_FLOAT
              type: DT_DOUBLE
              type: DT_UINT8
              type: DT_INT8
              type: DT_UINT16
              type: DT_INT16
              type: DT_INT32
              type: DT_INT64
              type: DT_COMPLEX64
              type: DT_COMPLEX128
            }
          }
        }
      }
      op {
        name: "Sum"
        input_arg {
          name: "input"
          type_attr: "T"
        }
        input_arg {
          name: "reduction_indices"
          type_attr: "Tidx"
        }
        output_arg {
          name: "output"
          type_attr: "T"
        }
        attr {
          name: "keep_dims"
          type: "bool"
          default_value {
            b: false
          }
        }
        attr {
          name: "T"
          type: "type"
          allowed_values {
            list {
              type: DT_FLOAT
              type: DT_DOUBLE
              type: DT_INT32
              type: DT_UINT8
              type: DT_INT16
              type: DT_INT8
              type: DT_COMPLEX64
              type: DT_INT64
              type: DT_QINT8
              type: DT_QUINT8
              type: DT_QINT32
              type: DT_BFLOAT16
              type: DT_UINT16
              type: DT_COMPLEX128
              type: DT_HALF
              type: DT_UINT32
              type: DT_UINT64
            }
          }
        }
        attr {
          name: "Tidx"
          type: "type"
          default_value {
            type: DT_INT32
          }
          allowed_values {
            list {
              type: DT_INT32
              type: DT_INT64
            }
          }
        }
      }
      op {
        name: "Switch"
        input_arg {
          name: "data"
          type_attr: "T"
        }
        input_arg {
          name: "pred"
          type: DT_BOOL
        }
        output_arg {
          name: "output_false"
          type_attr: "T"
        }
        output_arg {
          name: "output_true"
          type_attr: "T"
        }
        attr {
          name: "T"
          type: "type"
        }
      }
      op {
        name: "Tile"
        input_arg {
          name: "input"
          type_attr: "T"
        }
        input_arg {
          name: "multiples"
          type_attr: "Tmultiples"
        }
        output_arg {
          name: "output"
          type_attr: "T"
        }
        attr {
          name: "T"
          type: "type"
        }
        attr {
          name: "Tmultiples"
          type: "type"
          default_value {
            type: DT_INT32
          }
          allowed_values {
            list {
              type: DT_INT32
              type: DT_INT64
            }
          }
        }
      }
      op {
        name: "VarHandleOp"
        output_arg {
          name: "resource"
          type: DT_RESOURCE
        }
        attr {
          name: "container"
          type: "string"
          default_value {
            s: ""
          }
        }
        attr {
          name: "shared_name"
          type: "string"
          default_value {
            s: ""
          }
        }
        attr {
          name: "dtype"
          type: "type"
        }
        attr {
          name: "shape"
          type: "shape"
        }
        is_stateful: true
      }
      op {
        name: "VarIsInitializedOp"
        input_arg {
          name: "resource"
          type: DT_RESOURCE
        }
        output_arg {
          name: "is_initialized"
          type: DT_BOOL
        }
        is_stateful: true
      }
      op {
        name: "ZerosLike"
        input_arg {
          name: "x"
          type_attr: "T"
        }
        output_arg {
          name: "y"
          type_attr: "T"
        }
        attr {
          name: "T"
          type: "type"
        }
      }
    }
    tags: "serve"
    tensorflow_version: "1.13.2"
    tensorflow_git_version: "b\'v1.13.2-5-g04256c89d8\'"
  }
  graph_def {
    node {
      name: "input_tensor"
      op: "Placeholder"
      attr {
        key: "_output_shapes"
        value {
          list {
            shape {
              dim {
                size: -1
              }
              dim {
                size: 2
              }
            }
          }
        }
      }
      attr {
        key: "dtype"
        value {
          type: DT_FLOAT
        }
      }
      attr {
        key: "shape"
        value {
          shape {
            dim {
              size: -1
            }
            dim {
              size: 2
            }
          }
        }
      }
    }
    node {
      name: "dense/kernel/Initializer/random_uniform/shape"
      op: "Const"
      attr {
        key: "_class"
        value {
          list {
            s: "loc:@dense/kernel"
          }
        }
      }
      attr {
        key: "_output_shapes"
        value {
          list {
            shape {
              dim {
                size: 2
              }
            }
          }
        }
      }
      attr {
        key: "dtype"
        value {
          type: DT_INT32
        }
      }
      attr {
        key: "value"
        value {
          tensor {
            dtype: DT_INT32
            tensor_shape {
              dim {
                size: 2
              }
            }
            tensor_content: "\002\000\000\000\001\000\000\000"
          }
        }
      }
    }
    node {
      name: "dense/kernel/Initializer/random_uniform/min"
      op: "Const"
      attr {
        key: "_class"
        value {
          list {
            s: "loc:@dense/kernel"
          }
        }
      }
      attr {
        key: "_output_shapes"
        value {
          list {
            shape {
            }
          }
        }
      }
      attr {
        key: "dtype"
        value {
          type: DT_FLOAT
        }
      }
      attr {
        key: "value"
        value {
          tensor {
            dtype: DT_FLOAT
            tensor_shape {
            }
            float_val: -1.4142135381698608
          }
        }
      }
    }
    node {
      name: "dense/kernel/Initializer/random_uniform/max"
      op: "Const"
      attr {
        key: "_class"
        value {
          list {
            s: "loc:@dense/kernel"
          }
        }
      }
      attr {
        key: "_output_shapes"
        value {
          list {
            shape {
            }
          }
        }
      }
      attr {
        key: "dtype"
        value {
          type: DT_FLOAT
        }
      }
      attr {
        key: "value"
        value {
          tensor {
            dtype: DT_FLOAT
            tensor_shape {
            }
            float_val: 1.4142135381698608
          }
        }
      }
    }
    node {
      name: "dense/kernel/Initializer/random_uniform/RandomUniform"
      op: "RandomUniform"
      input: "dense/kernel/Initializer/random_uniform/shape"
      attr {
        key: "T"
        value {
          type: DT_INT32
        }
      }
      attr {
        key: "_class"
        value {
          list {
            s: "loc:@dense/kernel"
          }
        }
      }
      attr {
        key: "_output_shapes"
        value {
          list {
            shape {
              dim {
                size: 2
              }
              dim {
                size: 1
              }
            }
          }
        }
      }
      attr {
        key: "dtype"
        value {
          type: DT_FLOAT
        }
      }
      attr {
        key: "seed"
        value {
          i: 0
        }
      }
      attr {
        key: "seed2"
        value {
          i: 0
        }
      }
    }
    node {
      name: "dense/kernel/Initializer/random_uniform/sub"
      op: "Sub"
      input: "dense/kernel/Initializer/random_uniform/max"
      input: "dense/kernel/Initializer/random_uniform/min"
      attr {
        key: "T"
        value {
          type: DT_FLOAT
        }
      }
      attr {
        key: "_class"
        value {
          list {
            s: "loc:@dense/kernel"
          }
        }
      }
      attr {
        key: "_output_shapes"
        value {
          list {
            shape {
            }
          }
        }
      }
    }
    node {
      name: "dense/kernel/Initializer/random_uniform/mul"
      op: "Mul"
      input: "dense/kernel/Initializer/random_uniform/RandomUniform"
      input: "dense/kernel/Initializer/random_uniform/sub"
      attr {
        key: "T"
        value {
          type: DT_FLOAT
        }
      }
      attr {
        key: "_class"
        value {
          list {
            s: "loc:@dense/kernel"
          }
        }
      }
      attr {
        key: "_output_shapes"
        value {
          list {
            shape {
              dim {
                size: 2
              }
              dim {
                size: 1
              }
            }
          }
        }
      }
    }
    node {
      name: "dense/kernel/Initializer/random_uniform"
      op: "Add"
      input: "dense/kernel/Initializer/random_uniform/mul"
      input: "dense/kernel/Initializer/random_uniform/min"
      attr {
        key: "T"
        value {
          type: DT_FLOAT
        }
      }
      attr {
        key: "_class"
        value {
          list {
            s: "loc:@dense/kernel"
          }
        }
      }
      attr {
        key: "_output_shapes"
        value {
          list {
            shape {
              dim {
                size: 2
              }
              dim {
                size: 1
              }
            }
          }
        }
      }
    }
    node {
      name: "dense/kernel"
      op: "VarHandleOp"
      attr {
        key: "_class"
        value {
          list {
            s: "loc:@dense/kernel"
          }
        }
      }
      attr {
        key: "_output_shapes"
        value {
          list {
            shape {
            }
          }
        }
      }
      attr {
        key: "container"
        value {
          s: ""
        }
      }
      attr {
        key: "dtype"
        value {
          type: DT_FLOAT
        }
      }
      attr {
        key: "shape"
        value {
          shape {
            dim {
              size: 2
            }
            dim {
              size: 1
            }
          }
        }
      }
      attr {
        key: "shared_name"
        value {
          s: "dense/kernel"
        }
      }
    }
    node {
      name: "dense/kernel/IsInitialized/VarIsInitializedOp"
      op: "VarIsInitializedOp"
      input: "dense/kernel"
      attr {
        key: "_output_shapes"
        value {
          list {
            shape {
            }
          }
        }
      }
    }
    node {
      name: "dense/kernel/Assign"
      op: "AssignVariableOp"
      input: "dense/kernel"
      input: "dense/kernel/Initializer/random_uniform"
      attr {
        key: "_class"
        value {
          list {
            s: "loc:@dense/kernel"
          }
        }
      }
      attr {
        key: "dtype"
        value {
          type: DT_FLOAT
        }
      }
    }
    node {
      name: "dense/kernel/Read/ReadVariableOp"
      op: "ReadVariableOp"
      input: "dense/kernel"
      attr {
        key: "_class"
        value {
          list {
            s: "loc:@dense/kernel"
          }
        }
      }
      attr {
        key: "_output_shapes"
        value {
          list {
            shape {
              dim {
                size: 2
              }
              dim {
                size: 1
              }
            }
          }
        }
      }
      attr {
        key: "dtype"
        value {
          type: DT_FLOAT
        }
      }
    }
    node {
      name: "dense/bias/Initializer/zeros"
      op: "Const"
      attr {
        key: "_class"
        value {
          list {
            s: "loc:@dense/bias"
          }
        }
      }
      attr {
        key: "_output_shapes"
        value {
          list {
            shape {
              dim {
                size: 1
              }
            }
          }
        }
      }
      attr {
        key: "dtype"
        value {
          type: DT_FLOAT
        }
      }
      attr {
        key: "value"
        value {
          tensor {
            dtype: DT_FLOAT
            tensor_shape {
              dim {
                size: 1
              }
            }
            float_val: 0.0
          }
        }
      }
    }
    node {
      name: "dense/bias"
      op: "VarHandleOp"
      attr {
        key: "_class"
        value {
          list {
            s: "loc:@dense/bias"
          }
        }
      }
      attr {
        key: "_output_shapes"
        value {
          list {
            shape {
            }
          }
        }
      }
      attr {
        key: "container"
        value {
          s: ""
        }
      }
      attr {
        key: "dtype"
        value {
          type: DT_FLOAT
        }
      }
      attr {
        key: "shape"
        value {
          shape {
            dim {
              size: 1
            }
          }
        }
      }
      attr {
        key: "shared_name"
        value {
          s: "dense/bias"
        }
      }
    }
    node {
      name: "dense/bias/IsInitialized/VarIsInitializedOp"
      op: "VarIsInitializedOp"
      input: "dense/bias"
      attr {
        key: "_output_shapes"
        value {
          list {
            shape {
            }
          }
        }
      }
    }
    node {
      name: "dense/bias/Assign"
      op: "AssignVariableOp"
      input: "dense/bias"
      input: "dense/bias/Initializer/zeros"
      attr {
        key: "_class"
        value {
          list {
            s: "loc:@dense/bias"
          }
        }
      }
      attr {
        key: "dtype"
        value {
          type: DT_FLOAT
        }
      }
    }
    node {
      name: "dense/bias/Read/ReadVariableOp"
      op: "ReadVariableOp"
      input: "dense/bias"
      attr {
        key: "_class"
        value {
          list {
            s: "loc:@dense/bias"
          }
        }
      }
      attr {
        key: "_output_shapes"
        value {
          list {
            shape {
              dim {
                size: 1
              }
            }
          }
        }
      }
      attr {
        key: "dtype"
        value {
          type: DT_FLOAT
        }
      }
    }
    node {
      name: "dense/MatMul/ReadVariableOp"
      op: "ReadVariableOp"
      input: "dense/kernel"
      attr {
        key: "_output_shapes"
        value {
          list {
            shape {
              dim {
                size: 2
              }
              dim {
                size: 1
              }
            }
          }
        }
      }
      attr {
        key: "dtype"
        value {
          type: DT_FLOAT
        }
      }
    }
    node {
      name: "dense/MatMul"
      op: "MatMul"
      input: "input_tensor"
      input: "dense/MatMul/ReadVariableOp"
      attr {
        key: "T"
        value {
          type: DT_FLOAT
        }
      }
      attr {
        key: "_output_shapes"
        value {
          list {
            shape {
              dim {
                size: -1
              }
              dim {
                size: 1
              }
            }
          }
        }
      }
      attr {
        key: "transpose_a"
        value {
          b: false
        }
      }
      attr {
        key: "transpose_b"
        value {
          b: false
        }
      }
    }
    node {
      name: "dense/BiasAdd/ReadVariableOp"
      op: "ReadVariableOp"
      input: "dense/bias"
      attr {
        key: "_output_shapes"
        value {
          list {
            shape {
              dim {
                size: 1
              }
            }
          }
        }
      }
      attr {
        key: "dtype"
        value {
          type: DT_FLOAT
        }
      }
    }
    node {
      name: "dense/BiasAdd"
      op: "BiasAdd"
      input: "dense/MatMul"
      input: "dense/BiasAdd/ReadVariableOp"
      attr {
        key: "T"
        value {
          type: DT_FLOAT
        }
      }
      attr {
        key: "_output_shapes"
        value {
          list {
            shape {
              dim {
                size: -1
              }
              dim {
                size: 1
              }
            }
          }
        }
      }
      attr {
        key: "data_format"
        value {
          s: "NHWC"
        }
      }
    }
    node {
      name: "dense/Sigmoid"
      op: "Sigmoid"
      input: "dense/BiasAdd"
      attr {
        key: "T"
        value {
          type: DT_FLOAT
        }
      }
      attr {
        key: "_output_shapes"
        value {
          list {
            shape {
              dim {
                size: -1
              }
              dim {
                size: 1
              }
            }
          }
        }
      }
    }
    node {
      name: "Adam/iterations/Initializer/initial_value"
      op: "Const"
      attr {
        key: "_class"
        value {
          list {
            s: "loc:@Adam/iterations"
          }
        }
      }
      attr {
        key: "_output_shapes"
        value {
          list {
            shape {
            }
          }
        }
      }
      attr {
        key: "dtype"
        value {
          type: DT_INT64
        }
      }
      attr {
        key: "value"
        value {
          tensor {
            dtype: DT_INT64
            tensor_shape {
            }
            int64_val: 0
          }
        }
      }
    }
    node {
      name: "Adam/iterations"
      op: "VarHandleOp"
      attr {
        key: "_class"
        value {
          list {
            s: "loc:@Adam/iterations"
          }
        }
      }
      attr {
        key: "_output_shapes"
        value {
          list {
            shape {
            }
          }
        }
      }
      attr {
        key: "container"
        value {
          s: ""
        }
      }
      attr {
        key: "dtype"
        value {
          type: DT_INT64
        }
      }
      attr {
        key: "shape"
        value {
          shape {
          }
        }
      }
      attr {
        key: "shared_name"
        value {
          s: "Adam/iterations"
        }
      }
    }
    node {
      name: "Adam/iterations/IsInitialized/VarIsInitializedOp"
      op: "VarIsInitializedOp"
      input: "Adam/iterations"
      attr {
        key: "_output_shapes"
        value {
          list {
            shape {
            }
          }
        }
      }
    }
    node {
      name: "Adam/iterations/Assign"
      op: "AssignVariableOp"
      input: "Adam/iterations"
      input: "Adam/iterations/Initializer/initial_value"
      attr {
        key: "_class"
        value {
          list {
            s: "loc:@Adam/iterations"
          }
        }
      }
      attr {
        key: "dtype"
        value {
          type: DT_INT64
        }
      }
    }
    node {
      name: "Adam/iterations/Read/ReadVariableOp"
      op: "ReadVariableOp"
      input: "Adam/iterations"
      attr {
        key: "_class"
        value {
          list {
            s: "loc:@Adam/iterations"
          }
        }
      }
      attr {
        key: "_output_shapes"
        value {
          list {
            shape {
            }
          }
        }
      }
      attr {
        key: "dtype"
        value {
          type: DT_INT64
        }
      }
    }
    node {
      name: "Adam/lr/Initializer/initial_value"
      op: "Const"
      attr {
        key: "_class"
        value {
          list {
            s: "loc:@Adam/lr"
          }
        }
      }
      attr {
        key: "_output_shapes"
        value {
          list {
            shape {
            }
          }
        }
      }
      attr {
        key: "dtype"
        value {
          type: DT_FLOAT
        }
      }
      attr {
        key: "value"
        value {
          tensor {
            dtype: DT_FLOAT
            tensor_shape {
            }
            float_val: 0.0010000000474974513
          }
        }
      }
    }
    node {
      name: "Adam/lr"
      op: "VarHandleOp"
      attr {
        key: "_class"
        value {
          list {
            s: "loc:@Adam/lr"
          }
        }
      }
      attr {
        key: "_output_shapes"
        value {
          list {
            shape {
            }
          }
        }
      }
      attr {
        key: "container"
        value {
          s: ""
        }
      }
      attr {
        key: "dtype"
        value {
          type: DT_FLOAT
        }
      }
      attr {
        key: "shape"
        value {
          shape {
          }
        }
      }
      attr {
        key: "shared_name"
        value {
          s: "Adam/lr"
        }
      }
    }
    node {
      name: "Adam/lr/IsInitialized/VarIsInitializedOp"
      op: "VarIsInitializedOp"
      input: "Adam/lr"
      attr {
        key: "_output_shapes"
        value {
          list {
            shape {
            }
          }
        }
      }
    }
    node {
      name: "Adam/lr/Assign"
      op: "AssignVariableOp"
      input: "Adam/lr"
      input: "Adam/lr/Initializer/initial_value"
      attr {
        key: "_class"
        value {
          list {
            s: "loc:@Adam/lr"
          }
        }
      }
      attr {
        key: "dtype"
        value {
          type: DT_FLOAT
        }
      }
    }
    node {
      name: "Adam/lr/Read/ReadVariableOp"
      op: "ReadVariableOp"
      input: "Adam/lr"
      attr {
        key: "_class"
        value {
          list {
            s: "loc:@Adam/lr"
          }
        }
      }
      attr {
        key: "_output_shapes"
        value {
          list {
            shape {
            }
          }
        }
      }
      attr {
        key: "dtype"
        value {
          type: DT_FLOAT
        }
      }
    }
    node {
      name: "Adam/beta_1/Initializer/initial_value"
      op: "Const"
      attr {
        key: "_class"
        value {
          list {
            s: "loc:@Adam/beta_1"
          }
        }
      }
      attr {
        key: "_output_shapes"
        value {
          list {
            shape {
            }
          }
        }
      }
      attr {
        key: "dtype"
        value {
          type: DT_FLOAT
        }
      }
      attr {
        key: "value"
        value {
          tensor {
            dtype: DT_FLOAT
            tensor_shape {
            }
            float_val: 0.8999999761581421
          }
        }
      }
    }
    node {
      name: "Adam/beta_1"
      op: "VarHandleOp"
      attr {
        key: "_class"
        value {
          list {
            s: "loc:@Adam/beta_1"
          }
        }
      }
      attr {
        key: "_output_shapes"
        value {
          list {
            shape {
            }
          }
        }
      }
      attr {
        key: "container"
        value {
          s: ""
        }
      }
      attr {
        key: "dtype"
        value {
          type: DT_FLOAT
        }
      }
      attr {
        key: "shape"
        value {
          shape {
          }
        }
      }
      attr {
        key: "shared_name"
        value {
          s: "Adam/beta_1"
        }
      }
    }
    node {
      name: "Adam/beta_1/IsInitialized/VarIsInitializedOp"
      op: "VarIsInitializedOp"
      input: "Adam/beta_1"
      attr {
        key: "_output_shapes"
        value {
          list {
            shape {
            }
          }
        }
      }
    }
    node {
      name: "Adam/beta_1/Assign"
      op: "AssignVariableOp"
      input: "Adam/beta_1"
      input: "Adam/beta_1/Initializer/initial_value"
      attr {
        key: "_class"
        value {
          list {
            s: "loc:@Adam/beta_1"
          }
        }
      }
      attr {
        key: "dtype"
        value {
          type: DT_FLOAT
        }
      }
    }
    node {
      name: "Adam/beta_1/Read/ReadVariableOp"
      op: "ReadVariableOp"
      input: "Adam/beta_1"
      attr {
        key: "_class"
        value {
          list {
            s: "loc:@Adam/beta_1"
          }
        }
      }
      attr {
        key: "_output_shapes"
        value {
          list {
            shape {
            }
          }
        }
      }
      attr {
        key: "dtype"
        value {
          type: DT_FLOAT
        }
      }
    }
    node {
      name: "Adam/beta_2/Initializer/initial_value"
      op: "Const"
      attr {
        key: "_class"
        value {
          list {
            s: "loc:@Adam/beta_2"
          }
        }
      }
      attr {
        key: "_output_shapes"
        value {
          list {
            shape {
            }
          }
        }
      }
      attr {
        key: "dtype"
        value {
          type: DT_FLOAT
        }
      }
      attr {
        key: "value"
        value {
          tensor {
            dtype: DT_FLOAT
            tensor_shape {
            }
            float_val: 0.9990000128746033
          }
        }
      }
    }
    node {
      name: "Adam/beta_2"
      op: "VarHandleOp"
      attr {
        key: "_class"
        value {
          list {
            s: "loc:@Adam/beta_2"
          }
        }
      }
      attr {
        key: "_output_shapes"
        value {
          list {
            shape {
            }
          }
        }
      }
      attr {
        key: "container"
        value {
          s: ""
        }
      }
      attr {
        key: "dtype"
        value {
          type: DT_FLOAT
        }
      }
      attr {
        key: "shape"
        value {
          shape {
          }
        }
      }
      attr {
        key: "shared_name"
        value {
          s: "Adam/beta_2"
        }
      }
    }
    node {
      name: "Adam/beta_2/IsInitialized/VarIsInitializedOp"
      op: "VarIsInitializedOp"
      input: "Adam/beta_2"
      attr {
        key: "_output_shapes"
        value {
          list {
            shape {
            }
          }
        }
      }
    }
    node {
      name: "Adam/beta_2/Assign"
      op: "AssignVariableOp"
      input: "Adam/beta_2"
      input: "Adam/beta_2/Initializer/initial_value"
      attr {
        key: "_class"
        value {
          list {
            s: "loc:@Adam/beta_2"
          }
        }
      }
      attr {
        key: "dtype"
        value {
          type: DT_FLOAT
        }
      }
    }
    node {
      name: "Adam/beta_2/Read/ReadVariableOp"
      op: "ReadVariableOp"
      input: "Adam/beta_2"
      attr {
        key: "_class"
        value {
          list {
            s: "loc:@Adam/beta_2"
          }
        }
      }
      attr {
        key: "_output_shapes"
        value {
          list {
            shape {
            }
          }
        }
      }
      attr {
        key: "dtype"
        value {
          type: DT_FLOAT
        }
      }
    }
    node {
      name: "Adam/decay/Initializer/initial_value"
      op: "Const"
      attr {
        key: "_class"
        value {
          list {
            s: "loc:@Adam/decay"
          }
        }
      }
      attr {
        key: "_output_shapes"
        value {
          list {
            shape {
            }
          }
        }
      }
      attr {
        key: "dtype"
        value {
          type: DT_FLOAT
        }
      }
      attr {
        key: "value"
        value {
          tensor {
            dtype: DT_FLOAT
            tensor_shape {
            }
            float_val: 0.0
          }
        }
      }
    }
    node {
      name: "Adam/decay"
      op: "VarHandleOp"
      attr {
        key: "_class"
        value {
          list {
            s: "loc:@Adam/decay"
          }
        }
      }
      attr {
        key: "_output_shapes"
        value {
          list {
            shape {
            }
          }
        }
      }
      attr {
        key: "container"
        value {
          s: ""
        }
      }
      attr {
        key: "dtype"
        value {
          type: DT_FLOAT
        }
      }
      attr {
        key: "shape"
        value {
          shape {
          }
        }
      }
      attr {
        key: "shared_name"
        value {
          s: "Adam/decay"
        }
      }
    }
    node {
      name: "Adam/decay/IsInitialized/VarIsInitializedOp"
      op: "VarIsInitializedOp"
      input: "Adam/decay"
      attr {
        key: "_output_shapes"
        value {
          list {
            shape {
            }
          }
        }
      }
    }
    node {
      name: "Adam/decay/Assign"
      op: "AssignVariableOp"
      input: "Adam/decay"
      input: "Adam/decay/Initializer/initial_value"
      attr {
        key: "_class"
        value {
          list {
            s: "loc:@Adam/decay"
          }
        }
      }
      attr {
        key: "dtype"
        value {
          type: DT_FLOAT
        }
      }
    }
    node {
      name: "Adam/decay/Read/ReadVariableOp"
      op: "ReadVariableOp"
      input: "Adam/decay"
      attr {
        key: "_class"
        value {
          list {
            s: "loc:@Adam/decay"
          }
        }
      }
      attr {
        key: "_output_shapes"
        value {
          list {
            shape {
            }
          }
        }
      }
      attr {
        key: "dtype"
        value {
          type: DT_FLOAT
        }
      }
    }
    node {
      name: "dense_target"
      op: "Placeholder"
      attr {
        key: "_output_shapes"
        value {
          list {
            shape {
              dim {
                size: -1
              }
              dim {
                size: -1
              }
            }
          }
        }
      }
      attr {
        key: "dtype"
        value {
          type: DT_FLOAT
        }
      }
      attr {
        key: "shape"
        value {
          shape {
            dim {
              size: -1
            }
            dim {
              size: -1
            }
          }
        }
      }
    }
    node {
      name: "Const"
      op: "Const"
      attr {
        key: "_output_shapes"
        value {
          list {
            shape {
              dim {
                size: 1
              }
            }
          }
        }
      }
      attr {
        key: "dtype"
        value {
          type: DT_FLOAT
        }
      }
      attr {
        key: "value"
        value {
          tensor {
            dtype: DT_FLOAT
            tensor_shape {
              dim {
                size: 1
              }
            }
            float_val: 1.0
          }
        }
      }
    }
    node {
      name: "dense_sample_weights"
      op: "PlaceholderWithDefault"
      input: "Const"
      attr {
        key: "_output_shapes"
        value {
          list {
            shape {
              dim {
                size: -1
              }
            }
          }
        }
      }
      attr {
        key: "dtype"
        value {
          type: DT_FLOAT
        }
      }
      attr {
        key: "shape"
        value {
          shape {
            dim {
              size: -1
            }
          }
        }
      }
    }
    node {
      name: "total/Initializer/zeros"
      op: "Const"
      attr {
        key: "_class"
        value {
          list {
            s: "loc:@total"
          }
        }
      }
      attr {
        key: "_output_shapes"
        value {
          list {
            shape {
            }
          }
        }
      }
      attr {
        key: "dtype"
        value {
          type: DT_FLOAT
        }
      }
      attr {
        key: "value"
        value {
          tensor {
            dtype: DT_FLOAT
            tensor_shape {
            }
            float_val: 0.0
          }
        }
      }
    }
    node {
      name: "total"
      op: "VarHandleOp"
      attr {
        key: "_class"
        value {
          list {
            s: "loc:@total"
          }
        }
      }
      attr {
        key: "_output_shapes"
        value {
          list {
            shape {
            }
          }
        }
      }
      attr {
        key: "container"
        value {
          s: ""
        }
      }
      attr {
        key: "dtype"
        value {
          type: DT_FLOAT
        }
      }
      attr {
        key: "shape"
        value {
          shape {
          }
        }
      }
      attr {
        key: "shared_name"
        value {
          s: "total"
        }
      }
    }
    node {
      name: "total/IsInitialized/VarIsInitializedOp"
      op: "VarIsInitializedOp"
      input: "total"
      attr {
        key: "_output_shapes"
        value {
          list {
            shape {
            }
          }
        }
      }
    }
    node {
      name: "total/Assign"
      op: "AssignVariableOp"
      input: "total"
      input: "total/Initializer/zeros"
      attr {
        key: "_class"
        value {
          list {
            s: "loc:@total"
          }
        }
      }
      attr {
        key: "dtype"
        value {
          type: DT_FLOAT
        }
      }
    }
    node {
      name: "total/Read/ReadVariableOp"
      op: "ReadVariableOp"
      input: "total"
      attr {
        key: "_class"
        value {
          list {
            s: "loc:@total"
          }
        }
      }
      attr {
        key: "_output_shapes"
        value {
          list {
            shape {
            }
          }
        }
      }
      attr {
        key: "dtype"
        value {
          type: DT_FLOAT
        }
      }
    }
    node {
      name: "count/Initializer/zeros"
      op: "Const"
      attr {
        key: "_class"
        value {
          list {
            s: "loc:@count"
          }
        }
      }
      attr {
        key: "_output_shapes"
        value {
          list {
            shape {
            }
          }
        }
      }
      attr {
        key: "dtype"
        value {
          type: DT_FLOAT
        }
      }
      attr {
        key: "value"
        value {
          tensor {
            dtype: DT_FLOAT
            tensor_shape {
            }
            float_val: 0.0
          }
        }
      }
    }
    node {
      name: "count"
      op: "VarHandleOp"
      attr {
        key: "_class"
        value {
          list {
            s: "loc:@count"
          }
        }
      }
      attr {
        key: "_output_shapes"
        value {
          list {
            shape {
            }
          }
        }
      }
      attr {
        key: "container"
        value {
          s: ""
        }
      }
      attr {
        key: "dtype"
        value {
          type: DT_FLOAT
        }
      }
      attr {
        key: "shape"
        value {
          shape {
          }
        }
      }
      attr {
        key: "shared_name"
        value {
          s: "count"
        }
      }
    }
    node {
      name: "count/IsInitialized/VarIsInitializedOp"
      op: "VarIsInitializedOp"
      input: "count"
      attr {
        key: "_output_shapes"
        value {
          list {
            shape {
            }
          }
        }
      }
    }
    node {
      name: "count/Assign"
      op: "AssignVariableOp"
      input: "count"
      input: "count/Initializer/zeros"
      attr {
        key: "_class"
        value {
          list {
            s: "loc:@count"
          }
        }
      }
      attr {
        key: "dtype"
        value {
          type: DT_FLOAT
        }
      }
    }
    node {
      name: "count/Read/ReadVariableOp"
      op: "ReadVariableOp"
      input: "count"
      attr {
        key: "_class"
        value {
          list {
            s: "loc:@count"
          }
        }
      }
      attr {
        key: "_output_shapes"
        value {
          list {
            shape {
            }
          }
        }
      }
      attr {
        key: "dtype"
        value {
          type: DT_FLOAT
        }
      }
    }
    node {
      name: "loss/dense_loss/Const"
      op: "Const"
      attr {
        key: "_output_shapes"
        value {
          list {
            shape {
            }
          }
        }
      }
      attr {
        key: "dtype"
        value {
          type: DT_FLOAT
        }
      }
      attr {
        key: "value"
        value {
          tensor {
            dtype: DT_FLOAT
            tensor_shape {
            }
            float_val: 1.0000000116860974e-07
          }
        }
      }
    }
    node {
      name: "loss/dense_loss/sub/x"
      op: "Const"
      attr {
        key: "_output_shapes"
        value {
          list {
            shape {
            }
          }
        }
      }
      attr {
        key: "dtype"
        value {
          type: DT_FLOAT
        }
      }
      attr {
        key: "value"
        value {
          tensor {
            dtype: DT_FLOAT
            tensor_shape {
            }
            float_val: 1.0
          }
        }
      }
    }
    node {
      name: "loss/dense_loss/sub"
      op: "Sub"
      input: "loss/dense_loss/sub/x"
      input: "loss/dense_loss/Const"
      attr {
        key: "T"
        value {
          type: DT_FLOAT
        }
      }
      attr {
        key: "_output_shapes"
        value {
          list {
            shape {
            }
          }
        }
      }
    }
    node {
      name: "loss/dense_loss/clip_by_value/Minimum"
      op: "Minimum"
      input: "dense/Sigmoid"
      input: "loss/dense_loss/sub"
      attr {
        key: "T"
        value {
          type: DT_FLOAT
        }
      }
      attr {
        key: "_output_shapes"
        value {
          list {
            shape {
              dim {
                size: -1
              }
              dim {
                size: 1
              }
            }
          }
        }
      }
    }
    node {
      name: "loss/dense_loss/clip_by_value"
      op: "Maximum"
      input: "loss/dense_loss/clip_by_value/Minimum"
      input: "loss/dense_loss/Const"
      attr {
        key: "T"
        value {
          type: DT_FLOAT
        }
      }
      attr {
        key: "_output_shapes"
        value {
          list {
            shape {
              dim {
                size: -1
              }
              dim {
                size: 1
              }
            }
          }
        }
      }
    }
    node {
      name: "loss/dense_loss/sub_1/x"
      op: "Const"
      attr {
        key: "_output_shapes"
        value {
          list {
            shape {
            }
          }
        }
      }
      attr {
        key: "dtype"
        value {
          type: DT_FLOAT
        }
      }
      attr {
        key: "value"
        value {
          tensor {
            dtype: DT_FLOAT
            tensor_shape {
            }
            float_val: 1.0
          }
        }
      }
    }
    node {
      name: "loss/dense_loss/sub_1"
      op: "Sub"
      input: "loss/dense_loss/sub_1/x"
      input: "loss/dense_loss/clip_by_value"
      attr {
        key: "T"
        value {
          type: DT_FLOAT
        }
      }
      attr {
        key: "_output_shapes"
        value {
          list {
            shape {
              dim {
                size: -1
              }
              dim {
                size: 1
              }
            }
          }
        }
      }
    }
    node {
      name: "loss/dense_loss/truediv"
      op: "RealDiv"
      input: "loss/dense_loss/clip_by_value"
      input: "loss/dense_loss/sub_1"
      attr {
        key: "T"
        value {
          type: DT_FLOAT
        }
      }
      attr {
        key: "_output_shapes"
        value {
          list {
            shape {
              dim {
                size: -1
              }
              dim {
                size: 1
              }
            }
          }
        }
      }
    }
    node {
      name: "loss/dense_loss/Log"
      op: "Log"
      input: "loss/dense_loss/truediv"
      attr {
        key: "T"
        value {
          type: DT_FLOAT
        }
      }
      attr {
        key: "_output_shapes"
        value {
          list {
            shape {
              dim {
                size: -1
              }
              dim {
                size: 1
              }
            }
          }
        }
      }
    }
    node {
      name: "loss/dense_loss/logistic_loss/zeros_like"
      op: "ZerosLike"
      input: "loss/dense_loss/Log"
      attr {
        key: "T"
        value {
          type: DT_FLOAT
        }
      }
      attr {
        key: "_output_shapes"
        value {
          list {
            shape {
              dim {
                size: -1
              }
              dim {
                size: 1
              }
            }
          }
        }
      }
    }
    node {
      name: "loss/dense_loss/logistic_loss/GreaterEqual"
      op: "GreaterEqual"
      input: "loss/dense_loss/Log"
      input: "loss/dense_loss/logistic_loss/zeros_like"
      attr {
        key: "T"
        value {
          type: DT_FLOAT
        }
      }
      attr {
        key: "_output_shapes"
        value {
          list {
            shape {
              dim {
                size: -1
              }
              dim {
                size: 1
              }
            }
          }
        }
      }
    }
    node {
      name: "loss/dense_loss/logistic_loss/Select"
      op: "Select"
      input: "loss/dense_loss/logistic_loss/GreaterEqual"
      input: "loss/dense_loss/Log"
      input: "loss/dense_loss/logistic_loss/zeros_like"
      attr {
        key: "T"
        value {
          type: DT_FLOAT
        }
      }
      attr {
        key: "_output_shapes"
        value {
          list {
            shape {
              dim {
                size: -1
              }
              dim {
                size: 1
              }
            }
          }
        }
      }
    }
    node {
      name: "loss/dense_loss/logistic_loss/Neg"
      op: "Neg"
      input: "loss/dense_loss/Log"
      attr {
        key: "T"
        value {
          type: DT_FLOAT
        }
      }
      attr {
        key: "_output_shapes"
        value {
          list {
            shape {
              dim {
                size: -1
              }
              dim {
                size: 1
              }
            }
          }
        }
      }
    }
    node {
      name: "loss/dense_loss/logistic_loss/Select_1"
      op: "Select"
      input: "loss/dense_loss/logistic_loss/GreaterEqual"
      input: "loss/dense_loss/logistic_loss/Neg"
      input: "loss/dense_loss/Log"
      attr {
        key: "T"
        value {
          type: DT_FLOAT
        }
      }
      attr {
        key: "_output_shapes"
        value {
          list {
            shape {
              dim {
                size: -1
              }
              dim {
                size: 1
              }
            }
          }
        }
      }
    }
    node {
      name: "loss/dense_loss/logistic_loss/mul"
      op: "Mul"
      input: "loss/dense_loss/Log"
      input: "dense_target"
      attr {
        key: "T"
        value {
          type: DT_FLOAT
        }
      }
      attr {
        key: "_output_shapes"
        value {
          list {
            shape {
              dim {
                size: -1
              }
              dim {
                size: -1
              }
            }
          }
        }
      }
    }
    node {
      name: "loss/dense_loss/logistic_loss/sub"
      op: "Sub"
      input: "loss/dense_loss/logistic_loss/Select"
      input: "loss/dense_loss/logistic_loss/mul"
      attr {
        key: "T"
        value {
          type: DT_FLOAT
        }
      }
      attr {
        key: "_output_shapes"
        value {
          list {
            shape {
              dim {
                size: -1
              }
              dim {
                size: -1
              }
            }
          }
        }
      }
    }
    node {
      name: "loss/dense_loss/logistic_loss/Exp"
      op: "Exp"
      input: "loss/dense_loss/logistic_loss/Select_1"
      attr {
        key: "T"
        value {
          type: DT_FLOAT
        }
      }
      attr {
        key: "_output_shapes"
        value {
          list {
            shape {
              dim {
                size: -1
              }
              dim {
                size: 1
              }
            }
          }
        }
      }
    }
    node {
      name: "loss/dense_loss/logistic_loss/Log1p"
      op: "Log1p"
      input: "loss/dense_loss/logistic_loss/Exp"
      attr {
        key: "T"
        value {
          type: DT_FLOAT
        }
      }
      attr {
        key: "_output_shapes"
        value {
          list {
            shape {
              dim {
                size: -1
              }
              dim {
                size: 1
              }
            }
          }
        }
      }
    }
    node {
      name: "loss/dense_loss/logistic_loss"
      op: "Add"
      input: "loss/dense_loss/logistic_loss/sub"
      input: "loss/dense_loss/logistic_loss/Log1p"
      attr {
        key: "T"
        value {
          type: DT_FLOAT
        }
      }
      attr {
        key: "_output_shapes"
        value {
          list {
            shape {
              dim {
                size: -1
              }
              dim {
                size: -1
              }
            }
          }
        }
      }
    }
    node {
      name: "loss/dense_loss/Mean/reduction_indices"
      op: "Const"
      attr {
        key: "_output_shapes"
        value {
          list {
            shape {
            }
          }
        }
      }
      attr {
        key: "dtype"
        value {
          type: DT_INT32
        }
      }
      attr {
        key: "value"
        value {
          tensor {
            dtype: DT_INT32
            tensor_shape {
            }
            int_val: -1
          }
        }
      }
    }
    node {
      name: "loss/dense_loss/Mean"
      op: "Mean"
      input: "loss/dense_loss/logistic_loss"
      input: "loss/dense_loss/Mean/reduction_indices"
      attr {
        key: "T"
        value {
          type: DT_FLOAT
        }
      }
      attr {
        key: "Tidx"
        value {
          type: DT_INT32
        }
      }
      attr {
        key: "_output_shapes"
        value {
          list {
            shape {
              dim {
                size: -1
              }
            }
          }
        }
      }
      attr {
        key: "keep_dims"
        value {
          b: false
        }
      }
    }
    node {
      name: "loss/dense_loss/broadcast_weights/assert_broadcastable/weights/shape"
      op: "Shape"
      input: "dense_sample_weights"
      attr {
        key: "T"
        value {
          type: DT_FLOAT
        }
      }
      attr {
        key: "_output_shapes"
        value {
          list {
            shape {
              dim {
                size: 1
              }
            }
          }
        }
      }
      attr {
        key: "out_type"
        value {
          type: DT_INT32
        }
      }
    }
    node {
      name: "loss/dense_loss/broadcast_weights/assert_broadcastable/weights/rank"
      op: "Const"
      attr {
        key: "_output_shapes"
        value {
          list {
            shape {
            }
          }
        }
      }
      attr {
        key: "dtype"
        value {
          type: DT_INT32
        }
      }
      attr {
        key: "value"
        value {
          tensor {
            dtype: DT_INT32
            tensor_shape {
            }
            int_val: 1
          }
        }
      }
    }
    node {
      name: "loss/dense_loss/broadcast_weights/assert_broadcastable/values/shape"
      op: "Shape"
      input: "loss/dense_loss/Mean"
      attr {
        key: "T"
        value {
          type: DT_FLOAT
        }
      }
      attr {
        key: "_output_shapes"
        value {
          list {
            shape {
              dim {
                size: 1
              }
            }
          }
        }
      }
      attr {
        key: "out_type"
        value {
          type: DT_INT32
        }
      }
    }
    node {
      name: "loss/dense_loss/broadcast_weights/assert_broadcastable/values/rank"
      op: "Const"
      attr {
        key: "_output_shapes"
        value {
          list {
            shape {
            }
          }
        }
      }
      attr {
        key: "dtype"
        value {
          type: DT_INT32
        }
      }
      attr {
        key: "value"
        value {
          tensor {
            dtype: DT_INT32
            tensor_shape {
            }
            int_val: 1
          }
        }
      }
    }
    node {
      name: "loss/dense_loss/broadcast_weights/assert_broadcastable/is_scalar/x"
      op: "Const"
      attr {
        key: "_output_shapes"
        value {
          list {
            shape {
            }
          }
        }
      }
      attr {
        key: "dtype"
        value {
          type: DT_INT32
        }
      }
      attr {
        key: "value"
        value {
          tensor {
            dtype: DT_INT32
            tensor_shape {
            }
            int_val: 0
          }
        }
      }
    }
    node {
      name: "loss/dense_loss/broadcast_weights/assert_broadcastable/is_scalar"
      op: "Equal"
      input: "loss/dense_loss/broadcast_weights/assert_broadcastable/is_scalar/x"
      input: "loss/dense_loss/broadcast_weights/assert_broadcastable/weights/rank"
      attr {
        key: "T"
        value {
          type: DT_INT32
        }
      }
      attr {
        key: "_output_shapes"
        value {
          list {
            shape {
            }
          }
        }
      }
    }
    node {
      name: "loss/dense_loss/broadcast_weights/assert_broadcastable/is_valid_shape/Switch"
      op: "Switch"
      input: "loss/dense_loss/broadcast_weights/assert_broadcastable/is_scalar"
      input: "loss/dense_loss/broadcast_weights/assert_broadcastable/is_scalar"
      attr {
        key: "T"
        value {
          type: DT_BOOL
        }
      }
      attr {
        key: "_output_shapes"
        value {
          list {
            shape {
            }
            shape {
            }
          }
        }
      }
    }
    node {
      name: "loss/dense_loss/broadcast_weights/assert_broadcastable/is_valid_shape/switch_t"
      op: "Identity"
      input: "loss/dense_loss/broadcast_weights/assert_broadcastable/is_valid_shape/Switch:1"
      attr {
        key: "T"
        value {
          type: DT_BOOL
        }
      }
      attr {
        key: "_output_shapes"
        value {
          list {
            shape {
            }
          }
        }
      }
    }
    node {
      name: "loss/dense_loss/broadcast_weights/assert_broadcastable/is_valid_shape/switch_f"
      op: "Identity"
      input: "loss/dense_loss/broadcast_weights/assert_broadcastable/is_valid_shape/Switch"
      attr {
        key: "T"
        value {
          type: DT_BOOL
        }
      }
      attr {
        key: "_output_shapes"
        value {
          list {
            shape {
            }
          }
        }
      }
    }
    node {
      name: "loss/dense_loss/broadcast_weights/assert_broadcastable/is_valid_shape/pred_id"
      op: "Identity"
      input: "loss/dense_loss/broadcast_weights/assert_broadcastable/is_scalar"
      attr {
        key: "T"
        value {
          type: DT_BOOL
        }
      }
      attr {
        key: "_output_shapes"
        value {
          list {
            shape {
            }
          }
        }
      }
    }
    node {
      name: "loss/dense_loss/broadcast_weights/assert_broadcastable/is_valid_shape/Switch_1"
      op: "Switch"
      input: "loss/dense_loss/broadcast_weights/assert_broadcastable/is_scalar"
      input: "loss/dense_loss/broadcast_weights/assert_broadcastable/is_valid_shape/pred_id"
      attr {
        key: "T"
        value {
          type: DT_BOOL
        }
      }
      attr {
        key: "_class"
        value {
          list {
            s: "loc:@loss/dense_loss/broadcast_weights/assert_broadcastable/is_scalar"
          }
        }
      }
      attr {
        key: "_output_shapes"
        value {
          list {
            shape {
            }
            shape {
            }
          }
        }
      }
    }
    node {
      name: "loss/dense_loss/broadcast_weights/assert_broadcastable/is_valid_shape/has_valid_nonscalar_shape/is_same_rank"
      op: "Equal"
      input: "loss/dense_loss/broadcast_weights/assert_broadcastable/is_valid_shape/has_valid_nonscalar_shape/is_same_rank/Switch"
      input: "loss/dense_loss/broadcast_weights/assert_broadcastable/is_valid_shape/has_valid_nonscalar_shape/is_same_rank/Switch_1"
      attr {
        key: "T"
        value {
          type: DT_INT32
        }
      }
      attr {
        key: "_output_shapes"
        value {
          list {
            shape {
            }
          }
        }
      }
    }
    node {
      name: "loss/dense_loss/broadcast_weights/assert_broadcastable/is_valid_shape/has_valid_nonscalar_shape/is_same_rank/Switch"
      op: "Switch"
      input: "loss/dense_loss/broadcast_weights/assert_broadcastable/values/rank"
      input: "loss/dense_loss/broadcast_weights/assert_broadcastable/is_valid_shape/pred_id"
      attr {
        key: "T"
        value {
          type: DT_INT32
        }
      }
      attr {
        key: "_class"
        value {
          list {
            s: "loc:@loss/dense_loss/broadcast_weights/assert_broadcastable/values/rank"
          }
        }
      }
      attr {
        key: "_output_shapes"
        value {
          list {
            shape {
            }
            shape {
            }
          }
        }
      }
    }
    node {
      name: "loss/dense_loss/broadcast_weights/assert_broadcastable/is_valid_shape/has_valid_nonscalar_shape/is_same_rank/Switch_1"
      op: "Switch"
      input: "loss/dense_loss/broadcast_weights/assert_broadcastable/weights/rank"
      input: "loss/dense_loss/broadcast_weights/assert_broadcastable/is_valid_shape/pred_id"
      attr {
        key: "T"
        value {
          type: DT_INT32
        }
      }
      attr {
        key: "_class"
        value {
          list {
            s: "loc:@loss/dense_loss/broadcast_weights/assert_broadcastable/weights/rank"
          }
        }
      }
      attr {
        key: "_output_shapes"
        value {
          list {
            shape {
            }
            shape {
            }
          }
        }
      }
    }
    node {
      name: "loss/dense_loss/broadcast_weights/assert_broadcastable/is_valid_shape/has_valid_nonscalar_shape/Switch"
      op: "Switch"
      input: "loss/dense_loss/broadcast_weights/assert_broadcastable/is_valid_shape/has_valid_nonscalar_shape/is_same_rank"
      input: "loss/dense_loss/broadcast_weights/assert_broadcastable/is_valid_shape/has_valid_nonscalar_shape/is_same_rank"
      attr {
        key: "T"
        value {
          type: DT_BOOL
        }
      }
      attr {
        key: "_output_shapes"
        value {
          list {
            shape {
            }
            shape {
            }
          }
        }
      }
    }
    node {
      name: "loss/dense_loss/broadcast_weights/assert_broadcastable/is_valid_shape/has_valid_nonscalar_shape/switch_t"
      op: "Identity"
      input: "loss/dense_loss/broadcast_weights/assert_broadcastable/is_valid_shape/has_valid_nonscalar_shape/Switch:1"
      attr {
        key: "T"
        value {
          type: DT_BOOL
        }
      }
      attr {
        key: "_output_shapes"
        value {
          list {
            shape {
            }
          }
        }
      }
    }
    node {
      name: "loss/dense_loss/broadcast_weights/assert_broadcastable/is_valid_shape/has_valid_nonscalar_shape/switch_f"
      op: "Identity"
      input: "loss/dense_loss/broadcast_weights/assert_broadcastable/is_valid_shape/has_valid_nonscalar_shape/Switch"
      attr {
        key: "T"
        value {
          type: DT_BOOL
        }
      }
      attr {
        key: "_output_shapes"
        value {
          list {
            shape {
            }
          }
        }
      }
    }
    node {
      name: "loss/dense_loss/broadcast_weights/assert_broadcastable/is_valid_shape/has_valid_nonscalar_shape/pred_id"
      op: "Identity"
      input: "loss/dense_loss/broadcast_weights/assert_broadcastable/is_valid_shape/has_valid_nonscalar_shape/is_same_rank"
      attr {
        key: "T"
        value {
          type: DT_BOOL
        }
      }
      attr {
        key: "_output_shapes"
        value {
          list {
            shape {
            }
          }
        }
      }
    }
    node {
      name: "loss/dense_loss/broadcast_weights/assert_broadcastable/is_valid_shape/has_valid_nonscalar_shape/has_invalid_dims/ExpandDims/dim"
      op: "Const"
      input: "^loss/dense_loss/broadcast_weights/assert_broadcastable/is_valid_shape/has_valid_nonscalar_shape/switch_t"
      attr {
        key: "_output_shapes"
        value {
          list {
            shape {
            }
          }
        }
      }
      attr {
        key: "dtype"
        value {
          type: DT_INT32
        }
      }
      attr {
        key: "value"
        value {
          tensor {
            dtype: DT_INT32
            tensor_shape {
            }
            int_val: -1
          }
        }
      }
    }
    node {
      name: "loss/dense_loss/broadcast_weights/assert_broadcastable/is_valid_shape/has_valid_nonscalar_shape/has_invalid_dims/ExpandDims"
      op: "ExpandDims"
      input: "loss/dense_loss/broadcast_weights/assert_broadcastable/is_valid_shape/has_valid_nonscalar_shape/has_invalid_dims/ExpandDims/Switch_1:1"
      input: "loss/dense_loss/broadcast_weights/assert_broadcastable/is_valid_shape/has_valid_nonscalar_shape/has_invalid_dims/ExpandDims/dim"
      attr {
        key: "T"
        value {
          type: DT_INT32
        }
      }
      attr {
        key: "Tdim"
        value {
          type: DT_INT32
        }
      }
      attr {
        key: "_output_shapes"
        value {
          list {
            shape {
              dim {
                size: 1
              }
              dim {
                size: 1
              }
            }
          }
        }
      }
    }
    node {
      name: "loss/dense_loss/broadcast_weights/assert_broadcastable/is_valid_shape/has_valid_nonscalar_shape/has_invalid_dims/ExpandDims/Switch"
      op: "Switch"
      input: "loss/dense_loss/broadcast_weights/assert_broadcastable/values/shape"
      input: "loss/dense_loss/broadcast_weights/assert_broadcastable/is_valid_shape/pred_id"
      attr {
        key: "T"
        value {
          type: DT_INT32
        }
      }
      attr {
        key: "_class"
        value {
          list {
            s: "loc:@loss/dense_loss/broadcast_weights/assert_broadcastable/values/shape"
          }
        }
      }
      attr {
        key: "_output_shapes"
        value {
          list {
            shape {
              dim {
                size: 1
              }
            }
            shape {
              dim {
                size: 1
              }
            }
          }
        }
      }
    }
    node {
      name: "loss/dense_loss/broadcast_weights/assert_broadcastable/is_valid_shape/has_valid_nonscalar_shape/has_invalid_dims/ExpandDims/Switch_1"
      op: "Switch"
      input: "loss/dense_loss/broadcast_weights/assert_broadcastable/is_valid_shape/has_valid_nonscalar_shape/has_invalid_dims/ExpandDims/Switch"
      input: "loss/dense_loss/broadcast_weights/assert_broadcastable/is_valid_shape/has_valid_nonscalar_shape/pred_id"
      attr {
        key: "T"
        value {
          type: DT_INT32
        }
      }
      attr {
        key: "_class"
        value {
          list {
            s: "loc:@loss/dense_loss/broadcast_weights/assert_broadcastable/values/shape"
          }
        }
      }
      attr {
        key: "_output_shapes"
        value {
          list {
            shape {
              dim {
                size: 1
              }
            }
            shape {
              dim {
                size: 1
              }
            }
          }
        }
      }
    }
    node {
      name: "loss/dense_loss/broadcast_weights/assert_broadcastable/is_valid_shape/has_valid_nonscalar_shape/has_invalid_dims/ones_like/Shape"
      op: "Const"
      input: "^loss/dense_loss/broadcast_weights/assert_broadcastable/is_valid_shape/has_valid_nonscalar_shape/switch_t"
      attr {
        key: "_output_shapes"
        value {
          list {
            shape {
              dim {
                size: 2
              }
            }
          }
        }
      }
      attr {
        key: "dtype"
        value {
          type: DT_INT32
        }
      }
      attr {
        key: "value"
        value {
          tensor {
            dtype: DT_INT32
            tensor_shape {
              dim {
                size: 2
              }
            }
            tensor_content: "\001\000\000\000\001\000\000\000"
          }
        }
      }
    }
    node {
      name: "loss/dense_loss/broadcast_weights/assert_broadcastable/is_valid_shape/has_valid_nonscalar_shape/has_invalid_dims/ones_like/Const"
      op: "Const"
      input: "^loss/dense_loss/broadcast_weights/assert_broadcastable/is_valid_shape/has_valid_nonscalar_shape/switch_t"
      attr {
        key: "_output_shapes"
        value {
          list {
            shape {
            }
          }
        }
      }
      attr {
        key: "dtype"
        value {
          type: DT_INT32
        }
      }
      attr {
        key: "value"
        value {
          tensor {
            dtype: DT_INT32
            tensor_shape {
            }
            int_val: 1
          }
        }
      }
    }
    node {
      name: "loss/dense_loss/broadcast_weights/assert_broadcastable/is_valid_shape/has_valid_nonscalar_shape/has_invalid_dims/ones_like"
      op: "Fill"
      input: "loss/dense_loss/broadcast_weights/assert_broadcastable/is_valid_shape/has_valid_nonscalar_shape/has_invalid_dims/ones_like/Shape"
      input: "loss/dense_loss/broadcast_weights/assert_broadcastable/is_valid_shape/has_valid_nonscalar_shape/has_invalid_dims/ones_like/Const"
      attr {
        key: "T"
        value {
          type: DT_INT32
        }
      }
      attr {
        key: "_output_shapes"
        value {
          list {
            shape {
              dim {
                size: 1
              }
              dim {
                size: 1
              }
            }
          }
        }
      }
      attr {
        key: "index_type"
        value {
          type: DT_INT32
        }
      }
    }
    node {
      name: "loss/dense_loss/broadcast_weights/assert_broadcastable/is_valid_shape/has_valid_nonscalar_shape/has_invalid_dims/concat/axis"
      op: "Const"
      input: "^loss/dense_loss/broadcast_weights/assert_broadcastable/is_valid_shape/has_valid_nonscalar_shape/switch_t"
      attr {
        key: "_output_shapes"
        value {
          list {
            shape {
            }
          }
        }
      }
      attr {
        key: "dtype"
        value {
          type: DT_INT32
        }
      }
      attr {
        key: "value"
        value {
          tensor {
            dtype: DT_INT32
            tensor_shape {
            }
            int_val: 1
          }
        }
      }
    }
    node {
      name: "loss/dense_loss/broadcast_weights/assert_broadcastable/is_valid_shape/has_valid_nonscalar_shape/has_invalid_dims/concat"
      op: "ConcatV2"
      input: "loss/dense_loss/broadcast_weights/assert_broadcastable/is_valid_shape/has_valid_nonscalar_shape/has_invalid_dims/ExpandDims"
      input: "loss/dense_loss/broadcast_weights/assert_broadcastable/is_valid_shape/has_valid_nonscalar_shape/has_invalid_dims/ones_like"
      input: "loss/dense_loss/broadcast_weights/assert_broadcastable/is_valid_shape/has_valid_nonscalar_shape/has_invalid_dims/concat/axis"
      attr {
        key: "N"
        value {
          i: 2
        }
      }
      attr {
        key: "T"
        value {
          type: DT_INT32
        }
      }
      attr {
        key: "Tidx"
        value {
          type: DT_INT32
        }
      }
      attr {
        key: "_output_shapes"
        value {
          list {
            shape {
              dim {
                size: 1
              }
              dim {
                size: 2
              }
            }
          }
        }
      }
    }
    node {
      name: "loss/dense_loss/broadcast_weights/assert_broadcastable/is_valid_shape/has_valid_nonscalar_shape/has_invalid_dims/ExpandDims_1/dim"
      op: "Const"
      input: "^loss/dense_loss/broadcast_weights/assert_broadcastable/is_valid_shape/has_valid_nonscalar_shape/switch_t"
      attr {
        key: "_output_shapes"
        value {
          list {
            shape {
            }
          }
        }
      }
      attr {
        key: "dtype"
        value {
          type: DT_INT32
        }
      }
      attr {
        key: "value"
        value {
          tensor {
            dtype: DT_INT32
            tensor_shape {
            }
            int_val: -1
          }
        }
      }
    }
    node {
      name: "loss/dense_loss/broadcast_weights/assert_broadcastable/is_valid_shape/has_valid_nonscalar_shape/has_invalid_dims/ExpandDims_1"
      op: "ExpandDims"
      input: "loss/dense_loss/broadcast_weights/assert_broadcastable/is_valid_shape/has_valid_nonscalar_shape/has_invalid_dims/ExpandDims_1/Switch_1:1"
      input: "loss/dense_loss/broadcast_weights/assert_broadcastable/is_valid_shape/has_valid_nonscalar_shape/has_invalid_dims/ExpandDims_1/dim"
      attr {
        key: "T"
        value {
          type: DT_INT32
        }
      }
      attr {
        key: "Tdim"
        value {
          type: DT_INT32
        }
      }
      attr {
        key: "_output_shapes"
        value {
          list {
            shape {
              dim {
                size: 1
              }
              dim {
                size: 1
              }
            }
          }
        }
      }
    }
    node {
      name: "loss/dense_loss/broadcast_weights/assert_broadcastable/is_valid_shape/has_valid_nonscalar_shape/has_invalid_dims/ExpandDims_1/Switch"
      op: "Switch"
      input: "loss/dense_loss/broadcast_weights/assert_broadcastable/weights/shape"
      input: "loss/dense_loss/broadcast_weights/assert_broadcastable/is_valid_shape/pred_id"
      attr {
        key: "T"
        value {
          type: DT_INT32
        }
      }
      attr {
        key: "_class"
        value {
          list {
            s: "loc:@loss/dense_loss/broadcast_weights/assert_broadcastable/weights/shape"
          }
        }
      }
      attr {
        key: "_output_shapes"
        value {
          list {
            shape {
              dim {
                size: 1
              }
            }
            shape {
              dim {
                size: 1
              }
            }
          }
        }
      }
    }
    node {
      name: "loss/dense_loss/broadcast_weights/assert_broadcastable/is_valid_shape/has_valid_nonscalar_shape/has_invalid_dims/ExpandDims_1/Switch_1"
      op: "Switch"
      input: "loss/dense_loss/broadcast_weights/assert_broadcastable/is_valid_shape/has_valid_nonscalar_shape/has_invalid_dims/ExpandDims_1/Switch"
      input: "loss/dense_loss/broadcast_weights/assert_broadcastable/is_valid_shape/has_valid_nonscalar_shape/pred_id"
      attr {
        key: "T"
        value {
          type: DT_INT32
        }
      }
      attr {
        key: "_class"
        value {
          list {
            s: "loc:@loss/dense_loss/broadcast_weights/assert_broadcastable/weights/shape"
          }
        }
      }
      attr {
        key: "_output_shapes"
        value {
          list {
            shape {
              dim {
                size: 1
              }
            }
            shape {
              dim {
                size: 1
              }
            }
          }
        }
      }
    }
    node {
      name: "loss/dense_loss/broadcast_weights/assert_broadcastable/is_valid_shape/has_valid_nonscalar_shape/has_invalid_dims/DenseToDenseSetOperation"
      op: "DenseToDenseSetOperation"
      input: "loss/dense_loss/broadcast_weights/assert_broadcastable/is_valid_shape/has_valid_nonscalar_shape/has_invalid_dims/ExpandDims_1"
      input: "loss/dense_loss/broadcast_weights/assert_broadcastable/is_valid_shape/has_valid_nonscalar_shape/has_invalid_dims/concat"
      attr {
        key: "T"
        value {
          type: DT_INT32
        }
      }
      attr {
        key: "_output_shapes"
        value {
          list {
            shape {
              dim {
                size: -1
              }
              dim {
                size: 2
              }
            }
            shape {
              dim {
                size: -1
              }
            }
            shape {
              dim {
                size: 2
              }
            }
          }
        }
      }
      attr {
        key: "set_operation"
        value {
          s: "a-b"
        }
      }
      attr {
        key: "validate_indices"
        value {
          b: true
        }
      }
    }
    node {
      name: "loss/dense_loss/broadcast_weights/assert_broadcastable/is_valid_shape/has_valid_nonscalar_shape/has_invalid_dims/num_invalid_dims"
      op: "Size"
      input: "loss/dense_loss/broadcast_weights/assert_broadcastable/is_valid_shape/has_valid_nonscalar_shape/has_invalid_dims/DenseToDenseSetOperation:1"
      attr {
        key: "T"
        value {
          type: DT_INT32
        }
      }
      attr {
        key: "_output_shapes"
        value {
          list {
            shape {
            }
          }
        }
      }
      attr {
        key: "out_type"
        value {
          type: DT_INT32
        }
      }
    }
    node {
      name: "loss/dense_loss/broadcast_weights/assert_broadcastable/is_valid_shape/has_valid_nonscalar_shape/has_invalid_dims/x"
      op: "Const"
      input: "^loss/dense_loss/broadcast_weights/assert_broadcastable/is_valid_shape/has_valid_nonscalar_shape/switch_t"
      attr {
        key: "_output_shapes"
        value {
          list {
            shape {
            }
          }
        }
      }
      attr {
        key: "dtype"
        value {
          type: DT_INT32
        }
      }
      attr {
        key: "value"
        value {
          tensor {
            dtype: DT_INT32
            tensor_shape {
            }
            int_val: 0
          }
        }
      }
    }
    node {
      name: "loss/dense_loss/broadcast_weights/assert_broadcastable/is_valid_shape/has_valid_nonscalar_shape/has_invalid_dims"
      op: "Equal"
      input: "loss/dense_loss/broadcast_weights/assert_broadcastable/is_valid_shape/has_valid_nonscalar_shape/has_invalid_dims/x"
      input: "loss/dense_loss/broadcast_weights/assert_broadcastable/is_valid_shape/has_valid_nonscalar_shape/has_invalid_dims/num_invalid_dims"
      attr {
        key: "T"
        value {
          type: DT_INT32
        }
      }
      attr {
        key: "_output_shapes"
        value {
          list {
            shape {
            }
          }
        }
      }
    }
    node {
      name: "loss/dense_loss/broadcast_weights/assert_broadcastable/is_valid_shape/has_valid_nonscalar_shape/Switch_1"
      op: "Switch"
      input: "loss/dense_loss/broadcast_weights/assert_broadcastable/is_valid_shape/has_valid_nonscalar_shape/is_same_rank"
      input: "loss/dense_loss/broadcast_weights/assert_broadcastable/is_valid_shape/has_valid_nonscalar_shape/pred_id"
      attr {
        key: "T"
        value {
          type: DT_BOOL
        }
      }
      attr {
        key: "_class"
        value {
          list {
            s: "loc:@loss/dense_loss/broadcast_weights/assert_broadcastable/is_valid_shape/has_valid_nonscalar_shape/is_same_rank"
          }
        }
      }
      attr {
        key: "_output_shapes"
        value {
          list {
            shape {
            }
            shape {
            }
          }
        }
      }
    }
    node {
      name: "loss/dense_loss/broadcast_weights/assert_broadcastable/is_valid_shape/has_valid_nonscalar_shape/Merge"
      op: "Merge"
      input: "loss/dense_loss/broadcast_weights/assert_broadcastable/is_valid_shape/has_valid_nonscalar_shape/Switch_1"
      input: "loss/dense_loss/broadcast_weights/assert_broadcastable/is_valid_shape/has_valid_nonscalar_shape/has_invalid_dims"
      attr {
        key: "N"
        value {
          i: 2
        }
      }
      attr {
        key: "T"
        value {
          type: DT_BOOL
        }
      }
      attr {
        key: "_output_shapes"
        value {
          list {
            shape {
            }
            shape {
            }
          }
        }
      }
    }
    node {
      name: "loss/dense_loss/broadcast_weights/assert_broadcastable/is_valid_shape/Merge"
      op: "Merge"
      input: "loss/dense_loss/broadcast_weights/assert_broadcastable/is_valid_shape/has_valid_nonscalar_shape/Merge"
      input: "loss/dense_loss/broadcast_weights/assert_broadcastable/is_valid_shape/Switch_1:1"
      attr {
        key: "N"
        value {
          i: 2
        }
      }
      attr {
        key: "T"
        value {
          type: DT_BOOL
        }
      }
      attr {
        key: "_output_shapes"
        value {
          list {
            shape {
            }
            shape {
            }
          }
        }
      }
    }
    node {
      name: "loss/dense_loss/broadcast_weights/assert_broadcastable/Const"
      op: "Const"
      attr {
        key: "_output_shapes"
        value {
          list {
            shape {
            }
          }
        }
      }
      attr {
        key: "dtype"
        value {
          type: DT_STRING
        }
      }
      attr {
        key: "value"
        value {
          tensor {
            dtype: DT_STRING
            tensor_shape {
            }
            string_val: "weights can not be broadcast to values."
          }
        }
      }
    }
    node {
      name: "loss/dense_loss/broadcast_weights/assert_broadcastable/Const_1"
      op: "Const"
      attr {
        key: "_output_shapes"
        value {
          list {
            shape {
            }
          }
        }
      }
      attr {
        key: "dtype"
        value {
          type: DT_STRING
        }
      }
      attr {
        key: "value"
        value {
          tensor {
            dtype: DT_STRING
            tensor_shape {
            }
            string_val: "weights.shape="
          }
        }
      }
    }
    node {
      name: "loss/dense_loss/broadcast_weights/assert_broadcastable/Const_2"
      op: "Const"
      attr {
        key: "_output_shapes"
        value {
          list {
            shape {
            }
          }
        }
      }
      attr {
        key: "dtype"
        value {
          type: DT_STRING
        }
      }
      attr {
        key: "value"
        value {
          tensor {
            dtype: DT_STRING
            tensor_shape {
            }
            string_val: "dense_sample_weights:0"
          }
        }
      }
    }
    node {
      name: "loss/dense_loss/broadcast_weights/assert_broadcastable/Const_3"
      op: "Const"
      attr {
        key: "_output_shapes"
        value {
          list {
            shape {
            }
          }
        }
      }
      attr {
        key: "dtype"
        value {
          type: DT_STRING
        }
      }
      attr {
        key: "value"
        value {
          tensor {
            dtype: DT_STRING
            tensor_shape {
            }
            string_val: "values.shape="
          }
        }
      }
    }
    node {
      name: "loss/dense_loss/broadcast_weights/assert_broadcastable/Const_4"
      op: "Const"
      attr {
        key: "_output_shapes"
        value {
          list {
            shape {
            }
          }
        }
      }
      attr {
        key: "dtype"
        value {
          type: DT_STRING
        }
      }
      attr {
        key: "value"
        value {
          tensor {
            dtype: DT_STRING
            tensor_shape {
            }
            string_val: "loss/dense_loss/Mean:0"
          }
        }
      }
    }
    node {
      name: "loss/dense_loss/broadcast_weights/assert_broadcastable/Const_5"
      op: "Const"
      attr {
        key: "_output_shapes"
        value {
          list {
            shape {
            }
          }
        }
      }
      attr {
        key: "dtype"
        value {
          type: DT_STRING
        }
      }
      attr {
        key: "value"
        value {
          tensor {
            dtype: DT_STRING
            tensor_shape {
            }
            string_val: "is_scalar="
          }
        }
      }
    }
    node {
      name: "loss/dense_loss/broadcast_weights/assert_broadcastable/AssertGuard/Switch"
      op: "Switch"
      input: "loss/dense_loss/broadcast_weights/assert_broadcastable/is_valid_shape/Merge"
      input: "loss/dense_loss/broadcast_weights/assert_broadcastable/is_valid_shape/Merge"
      attr {
        key: "T"
        value {
          type: DT_BOOL
        }
      }
      attr {
        key: "_output_shapes"
        value {
          list {
            shape {
            }
            shape {
            }
          }
        }
      }
    }
    node {
      name: "loss/dense_loss/broadcast_weights/assert_broadcastable/AssertGuard/switch_t"
      op: "Identity"
      input: "loss/dense_loss/broadcast_weights/assert_broadcastable/AssertGuard/Switch:1"
      attr {
        key: "T"
        value {
          type: DT_BOOL
        }
      }
      attr {
        key: "_output_shapes"
        value {
          list {
            shape {
            }
          }
        }
      }
    }
    node {
      name: "loss/dense_loss/broadcast_weights/assert_broadcastable/AssertGuard/switch_f"
      op: "Identity"
      input: "loss/dense_loss/broadcast_weights/assert_broadcastable/AssertGuard/Switch"
      attr {
        key: "T"
        value {
          type: DT_BOOL
        }
      }
      attr {
        key: "_output_shapes"
        value {
          list {
            shape {
            }
          }
        }
      }
    }
    node {
      name: "loss/dense_loss/broadcast_weights/assert_broadcastable/AssertGuard/pred_id"
      op: "Identity"
      input: "loss/dense_loss/broadcast_weights/assert_broadcastable/is_valid_shape/Merge"
      attr {
        key: "T"
        value {
          type: DT_BOOL
        }
      }
      attr {
        key: "_output_shapes"
        value {
          list {
            shape {
            }
          }
        }
      }
    }
    node {
      name: "loss/dense_loss/broadcast_weights/assert_broadcastable/AssertGuard/NoOp"
      op: "NoOp"
      input: "^loss/dense_loss/broadcast_weights/assert_broadcastable/AssertGuard/switch_t"
    }
    node {
      name: "loss/dense_loss/broadcast_weights/assert_broadcastable/AssertGuard/control_dependency"
      op: "Identity"
      input: "loss/dense_loss/broadcast_weights/assert_broadcastable/AssertGuard/switch_t"
      input: "^loss/dense_loss/broadcast_weights/assert_broadcastable/AssertGuard/NoOp"
      attr {
        key: "T"
        value {
          type: DT_BOOL
        }
      }
      attr {
        key: "_class"
        value {
          list {
            s: "loc:@loss/dense_loss/broadcast_weights/assert_broadcastable/AssertGuard/switch_t"
          }
        }
      }
      attr {
        key: "_output_shapes"
        value {
          list {
            shape {
            }
          }
        }
      }
    }
    node {
      name: "loss/dense_loss/broadcast_weights/assert_broadcastable/AssertGuard/Assert/data_0"
      op: "Const"
      input: "^loss/dense_loss/broadcast_weights/assert_broadcastable/AssertGuard/switch_f"
      attr {
        key: "_output_shapes"
        value {
          list {
            shape {
            }
          }
        }
      }
      attr {
        key: "dtype"
        value {
          type: DT_STRING
        }
      }
      attr {
        key: "value"
        value {
          tensor {
            dtype: DT_STRING
            tensor_shape {
            }
            string_val: "weights can not be broadcast to values."
          }
        }
      }
    }
    node {
      name: "loss/dense_loss/broadcast_weights/assert_broadcastable/AssertGuard/Assert/data_1"
      op: "Const"
      input: "^loss/dense_loss/broadcast_weights/assert_broadcastable/AssertGuard/switch_f"
      attr {
        key: "_output_shapes"
        value {
          list {
            shape {
            }
          }
        }
      }
      attr {
        key: "dtype"
        value {
          type: DT_STRING
        }
      }
      attr {
        key: "value"
        value {
          tensor {
            dtype: DT_STRING
            tensor_shape {
            }
            string_val: "weights.shape="
          }
        }
      }
    }
    node {
      name: "loss/dense_loss/broadcast_weights/assert_broadcastable/AssertGuard/Assert/data_2"
      op: "Const"
      input: "^loss/dense_loss/broadcast_weights/assert_broadcastable/AssertGuard/switch_f"
      attr {
        key: "_output_shapes"
        value {
          list {
            shape {
            }
          }
        }
      }
      attr {
        key: "dtype"
        value {
          type: DT_STRING
        }
      }
      attr {
        key: "value"
        value {
          tensor {
            dtype: DT_STRING
            tensor_shape {
            }
            string_val: "dense_sample_weights:0"
          }
        }
      }
    }
    node {
      name: "loss/dense_loss/broadcast_weights/assert_broadcastable/AssertGuard/Assert/data_4"
      op: "Const"
      input: "^loss/dense_loss/broadcast_weights/assert_broadcastable/AssertGuard/switch_f"
      attr {
        key: "_output_shapes"
        value {
          list {
            shape {
            }
          }
        }
      }
      attr {
        key: "dtype"
        value {
          type: DT_STRING
        }
      }
      attr {
        key: "value"
        value {
          tensor {
            dtype: DT_STRING
            tensor_shape {
            }
            string_val: "values.shape="
          }
        }
      }
    }
    node {
      name: "loss/dense_loss/broadcast_weights/assert_broadcastable/AssertGuard/Assert/data_5"
      op: "Const"
      input: "^loss/dense_loss/broadcast_weights/assert_broadcastable/AssertGuard/switch_f"
      attr {
        key: "_output_shapes"
        value {
          list {
            shape {
            }
          }
        }
      }
      attr {
        key: "dtype"
        value {
          type: DT_STRING
        }
      }
      attr {
        key: "value"
        value {
          tensor {
            dtype: DT_STRING
            tensor_shape {
            }
            string_val: "loss/dense_loss/Mean:0"
          }
        }
      }
    }
    node {
      name: "loss/dense_loss/broadcast_weights/assert_broadcastable/AssertGuard/Assert/data_7"
      op: "Const"
      input: "^loss/dense_loss/broadcast_weights/assert_broadcastable/AssertGuard/switch_f"
      attr {
        key: "_output_shapes"
        value {
          list {
            shape {
            }
          }
        }
      }
      attr {
        key: "dtype"
        value {
          type: DT_STRING
        }
      }
      attr {
        key: "value"
        value {
          tensor {
            dtype: DT_STRING
            tensor_shape {
            }
            string_val: "is_scalar="
          }
        }
      }
    }
    node {
      name: "loss/dense_loss/broadcast_weights/assert_broadcastable/AssertGuard/Assert"
      op: "Assert"
      input: "loss/dense_loss/broadcast_weights/assert_broadcastable/AssertGuard/Assert/Switch"
      input: "loss/dense_loss/broadcast_weights/assert_broadcastable/AssertGuard/Assert/data_0"
      input: "loss/dense_loss/broadcast_weights/assert_broadcastable/AssertGuard/Assert/data_1"
      input: "loss/dense_loss/broadcast_weights/assert_broadcastable/AssertGuard/Assert/data_2"
      input: "loss/dense_loss/broadcast_weights/assert_broadcastable/AssertGuard/Assert/Switch_1"
      input: "loss/dense_loss/broadcast_weights/assert_broadcastable/AssertGuard/Assert/data_4"
      input: "loss/dense_loss/broadcast_weights/assert_broadcastable/AssertGuard/Assert/data_5"
      input: "loss/dense_loss/broadcast_weights/assert_broadcastable/AssertGuard/Assert/Switch_2"
      input: "loss/dense_loss/broadcast_weights/assert_broadcastable/AssertGuard/Assert/data_7"
      input: "loss/dense_loss/broadcast_weights/assert_broadcastable/AssertGuard/Assert/Switch_3"
      attr {
        key: "T"
        value {
          list {
            type: DT_STRING
            type: DT_STRING
            type: DT_STRING
            type: DT_INT32
            type: DT_STRING
            type: DT_STRING
            type: DT_INT32
            type: DT_STRING
            type: DT_BOOL
          }
        }
      }
      attr {
        key: "summarize"
        value {
          i: 3
        }
      }
    }
    node {
      name: "loss/dense_loss/broadcast_weights/assert_broadcastable/AssertGuard/Assert/Switch"
      op: "Switch"
      input: "loss/dense_loss/broadcast_weights/assert_broadcastable/is_valid_shape/Merge"
      input: "loss/dense_loss/broadcast_weights/assert_broadcastable/AssertGuard/pred_id"
      attr {
        key: "T"
        value {
          type: DT_BOOL
        }
      }
      attr {
        key: "_class"
        value {
          list {
            s: "loc:@loss/dense_loss/broadcast_weights/assert_broadcastable/is_valid_shape/Merge"
          }
        }
      }
      attr {
        key: "_output_shapes"
        value {
          list {
            shape {
            }
            shape {
            }
          }
        }
      }
    }
    node {
      name: "loss/dense_loss/broadcast_weights/assert_broadcastable/AssertGuard/Assert/Switch_1"
      op: "Switch"
      input: "loss/dense_loss/broadcast_weights/assert_broadcastable/weights/shape"
      input: "loss/dense_loss/broadcast_weights/assert_broadcastable/AssertGuard/pred_id"
      attr {
        key: "T"
        value {
          type: DT_INT32
        }
      }
      attr {
        key: "_class"
        value {
          list {
            s: "loc:@loss/dense_loss/broadcast_weights/assert_broadcastable/weights/shape"
          }
        }
      }
      attr {
        key: "_output_shapes"
        value {
          list {
            shape {
              dim {
                size: 1
              }
            }
            shape {
              dim {
                size: 1
              }
            }
          }
        }
      }
    }
    node {
      name: "loss/dense_loss/broadcast_weights/assert_broadcastable/AssertGuard/Assert/Switch_2"
      op: "Switch"
      input: "loss/dense_loss/broadcast_weights/assert_broadcastable/values/shape"
      input: "loss/dense_loss/broadcast_weights/assert_broadcastable/AssertGuard/pred_id"
      attr {
        key: "T"
        value {
          type: DT_INT32
        }
      }
      attr {
        key: "_class"
        value {
          list {
            s: "loc:@loss/dense_loss/broadcast_weights/assert_broadcastable/values/shape"
          }
        }
      }
      attr {
        key: "_output_shapes"
        value {
          list {
            shape {
              dim {
                size: 1
              }
            }
            shape {
              dim {
                size: 1
              }
            }
          }
        }
      }
    }
    node {
      name: "loss/dense_loss/broadcast_weights/assert_broadcastable/AssertGuard/Assert/Switch_3"
      op: "Switch"
      input: "loss/dense_loss/broadcast_weights/assert_broadcastable/is_scalar"
      input: "loss/dense_loss/broadcast_weights/assert_broadcastable/AssertGuard/pred_id"
      attr {
        key: "T"
        value {
          type: DT_BOOL
        }
      }
      attr {
        key: "_class"
        value {
          list {
            s: "loc:@loss/dense_loss/broadcast_weights/assert_broadcastable/is_scalar"
          }
        }
      }
      attr {
        key: "_output_shapes"
        value {
          list {
            shape {
            }
            shape {
            }
          }
        }
      }
    }
    node {
      name: "loss/dense_loss/broadcast_weights/assert_broadcastable/AssertGuard/control_dependency_1"
      op: "Identity"
      input: "loss/dense_loss/broadcast_weights/assert_broadcastable/AssertGuard/switch_f"
      input: "^loss/dense_loss/broadcast_weights/assert_broadcastable/AssertGuard/Assert"
      attr {
        key: "T"
        value {
          type: DT_BOOL
        }
      }
      attr {
        key: "_class"
        value {
          list {
            s: "loc:@loss/dense_loss/broadcast_weights/assert_broadcastable/AssertGuard/switch_f"
          }
        }
      }
      attr {
        key: "_output_shapes"
        value {
          list {
            shape {
            }
          }
        }
      }
    }
    node {
      name: "loss/dense_loss/broadcast_weights/assert_broadcastable/AssertGuard/Merge"
      op: "Merge"
      input: "loss/dense_loss/broadcast_weights/assert_broadcastable/AssertGuard/control_dependency_1"
      input: "loss/dense_loss/broadcast_weights/assert_broadcastable/AssertGuard/control_dependency"
      attr {
        key: "N"
        value {
          i: 2
        }
      }
      attr {
        key: "T"
        value {
          type: DT_BOOL
        }
      }
      attr {
        key: "_output_shapes"
        value {
          list {
            shape {
            }
            shape {
            }
          }
        }
      }
    }
    node {
      name: "loss/dense_loss/broadcast_weights/ones_like/Shape"
      op: "Shape"
      input: "loss/dense_loss/Mean"
      input: "^loss/dense_loss/broadcast_weights/assert_broadcastable/AssertGuard/Merge"
      attr {
        key: "T"
        value {
          type: DT_FLOAT
        }
      }
      attr {
        key: "_output_shapes"
        value {
          list {
            shape {
              dim {
                size: 1
              }
            }
          }
        }
      }
      attr {
        key: "out_type"
        value {
          type: DT_INT32
        }
      }
    }
    node {
      name: "loss/dense_loss/broadcast_weights/ones_like/Const"
      op: "Const"
      input: "^loss/dense_loss/broadcast_weights/assert_broadcastable/AssertGuard/Merge"
      attr {
        key: "_output_shapes"
        value {
          list {
            shape {
            }
          }
        }
      }
      attr {
        key: "dtype"
        value {
          type: DT_FLOAT
        }
      }
      attr {
        key: "value"
        value {
          tensor {
            dtype: DT_FLOAT
            tensor_shape {
            }
            float_val: 1.0
          }
        }
      }
    }
    node {
      name: "loss/dense_loss/broadcast_weights/ones_like"
      op: "Fill"
      input: "loss/dense_loss/broadcast_weights/ones_like/Shape"
      input: "loss/dense_loss/broadcast_weights/ones_like/Const"
      attr {
        key: "T"
        value {
          type: DT_FLOAT
        }
      }
      attr {
        key: "_output_shapes"
        value {
          list {
            shape {
              dim {
                size: -1
              }
            }
          }
        }
      }
      attr {
        key: "index_type"
        value {
          type: DT_INT32
        }
      }
    }
    node {
      name: "loss/dense_loss/broadcast_weights"
      op: "Mul"
      input: "dense_sample_weights"
      input: "loss/dense_loss/broadcast_weights/ones_like"
      attr {
        key: "T"
        value {
          type: DT_FLOAT
        }
      }
      attr {
        key: "_output_shapes"
        value {
          list {
            shape {
              dim {
                size: -1
              }
            }
          }
        }
      }
    }
    node {
      name: "loss/dense_loss/Mul"
      op: "Mul"
      input: "loss/dense_loss/Mean"
      input: "loss/dense_loss/broadcast_weights"
      attr {
        key: "T"
        value {
          type: DT_FLOAT
        }
      }
      attr {
        key: "_output_shapes"
        value {
          list {
            shape {
              dim {
                size: -1
              }
            }
          }
        }
      }
    }
    node {
      name: "loss/dense_loss/Const_1"
      op: "Const"
      attr {
        key: "_output_shapes"
        value {
          list {
            shape {
              dim {
                size: 1
              }
            }
          }
        }
      }
      attr {
        key: "dtype"
        value {
          type: DT_INT32
        }
      }
      attr {
        key: "value"
        value {
          tensor {
            dtype: DT_INT32
            tensor_shape {
              dim {
                size: 1
              }
            }
            int_val: 0
          }
        }
      }
    }
    node {
      name: "loss/dense_loss/Sum"
      op: "Sum"
      input: "loss/dense_loss/Mul"
      input: "loss/dense_loss/Const_1"
      attr {
        key: "T"
        value {
          type: DT_FLOAT
        }
      }
      attr {
        key: "Tidx"
        value {
          type: DT_INT32
        }
      }
      attr {
        key: "_output_shapes"
        value {
          list {
            shape {
            }
          }
        }
      }
      attr {
        key: "keep_dims"
        value {
          b: false
        }
      }
    }
    node {
      name: "loss/dense_loss/Const_2"
      op: "Const"
      attr {
        key: "_output_shapes"
        value {
          list {
            shape {
              dim {
                size: 1
              }
            }
          }
        }
      }
      attr {
        key: "dtype"
        value {
          type: DT_INT32
        }
      }
      attr {
        key: "value"
        value {
          tensor {
            dtype: DT_INT32
            tensor_shape {
              dim {
                size: 1
              }
            }
            int_val: 0
          }
        }
      }
    }
    node {
      name: "loss/dense_loss/Sum_1"
      op: "Sum"
      input: "loss/dense_loss/broadcast_weights"
      input: "loss/dense_loss/Const_2"
      attr {
        key: "T"
        value {
          type: DT_FLOAT
        }
      }
      attr {
        key: "Tidx"
        value {
          type: DT_INT32
        }
      }
      attr {
        key: "_output_shapes"
        value {
          list {
            shape {
            }
          }
        }
      }
      attr {
        key: "keep_dims"
        value {
          b: false
        }
      }
    }
    node {
      name: "loss/dense_loss/div_no_nan"
      op: "DivNoNan"
      input: "loss/dense_loss/Sum"
      input: "loss/dense_loss/Sum_1"
      attr {
        key: "T"
        value {
          type: DT_FLOAT
        }
      }
      attr {
        key: "_output_shapes"
        value {
          list {
            shape {
            }
          }
        }
      }
    }
    node {
      name: "loss/dense_loss/Const_3"
      op: "Const"
      attr {
        key: "_output_shapes"
        value {
          list {
            shape {
              dim {
              }
            }
          }
        }
      }
      attr {
        key: "dtype"
        value {
          type: DT_INT32
        }
      }
      attr {
        key: "value"
        value {
          tensor {
            dtype: DT_INT32
            tensor_shape {
              dim {
              }
            }
          }
        }
      }
    }
    node {
      name: "loss/dense_loss/Mean_1"
      op: "Mean"
      input: "loss/dense_loss/div_no_nan"
      input: "loss/dense_loss/Const_3"
      attr {
        key: "T"
        value {
          type: DT_FLOAT
        }
      }
      attr {
        key: "Tidx"
        value {
          type: DT_INT32
        }
      }
      attr {
        key: "_output_shapes"
        value {
          list {
            shape {
            }
          }
        }
      }
      attr {
        key: "keep_dims"
        value {
          b: false
        }
      }
    }
    node {
      name: "loss/mul/x"
      op: "Const"
      attr {
        key: "_output_shapes"
        value {
          list {
            shape {
            }
          }
        }
      }
      attr {
        key: "dtype"
        value {
          type: DT_FLOAT
        }
      }
      attr {
        key: "value"
        value {
          tensor {
            dtype: DT_FLOAT
            tensor_shape {
            }
            float_val: 1.0
          }
        }
      }
    }
    node {
      name: "loss/mul"
      op: "Mul"
      input: "loss/mul/x"
      input: "loss/dense_loss/Mean_1"
      attr {
        key: "T"
        value {
          type: DT_FLOAT
        }
      }
      attr {
        key: "_output_shapes"
        value {
          list {
            shape {
            }
          }
        }
      }
    }
    node {
      name: "metrics/acc/Cast/x"
      op: "Const"
      attr {
        key: "_output_shapes"
        value {
          list {
            shape {
            }
          }
        }
      }
      attr {
        key: "dtype"
        value {
          type: DT_FLOAT
        }
      }
      attr {
        key: "value"
        value {
          tensor {
            dtype: DT_FLOAT
            tensor_shape {
            }
            float_val: 0.5
          }
        }
      }
    }
    node {
      name: "metrics/acc/Greater"
      op: "Greater"
      input: "dense/Sigmoid"
      input: "metrics/acc/Cast/x"
      attr {
        key: "T"
        value {
          type: DT_FLOAT
        }
      }
      attr {
        key: "_output_shapes"
        value {
          list {
            shape {
              dim {
                size: -1
              }
              dim {
                size: 1
              }
            }
          }
        }
      }
    }
    node {
      name: "metrics/acc/Cast_1"
      op: "Cast"
      input: "metrics/acc/Greater"
      attr {
        key: "DstT"
        value {
          type: DT_FLOAT
        }
      }
      attr {
        key: "SrcT"
        value {
          type: DT_BOOL
        }
      }
      attr {
        key: "Truncate"
        value {
          b: false
        }
      }
      attr {
        key: "_output_shapes"
        value {
          list {
            shape {
              dim {
                size: -1
              }
              dim {
                size: 1
              }
            }
          }
        }
      }
    }
    node {
      name: "metrics/acc/Equal"
      op: "Equal"
      input: "dense_target"
      input: "metrics/acc/Cast_1"
      attr {
        key: "T"
        value {
          type: DT_FLOAT
        }
      }
      attr {
        key: "_output_shapes"
        value {
          list {
            shape {
              dim {
                size: -1
              }
              dim {
                size: -1
              }
            }
          }
        }
      }
    }
    node {
      name: "metrics/acc/Cast_2"
      op: "Cast"
      input: "metrics/acc/Equal"
      attr {
        key: "DstT"
        value {
          type: DT_FLOAT
        }
      }
      attr {
        key: "SrcT"
        value {
          type: DT_BOOL
        }
      }
      attr {
        key: "Truncate"
        value {
          b: false
        }
      }
      attr {
        key: "_output_shapes"
        value {
          list {
            shape {
              dim {
                size: -1
              }
              dim {
                size: -1
              }
            }
          }
        }
      }
    }
    node {
      name: "metrics/acc/Mean/reduction_indices"
      op: "Const"
      attr {
        key: "_output_shapes"
        value {
          list {
            shape {
            }
          }
        }
      }
      attr {
        key: "dtype"
        value {
          type: DT_INT32
        }
      }
      attr {
        key: "value"
        value {
          tensor {
            dtype: DT_INT32
            tensor_shape {
            }
            int_val: -1
          }
        }
      }
    }
    node {
      name: "metrics/acc/Mean"
      op: "Mean"
      input: "metrics/acc/Cast_2"
      input: "metrics/acc/Mean/reduction_indices"
      attr {
        key: "T"
        value {
          type: DT_FLOAT
        }
      }
      attr {
        key: "Tidx"
        value {
          type: DT_INT32
        }
      }
      attr {
        key: "_output_shapes"
        value {
          list {
            shape {
              dim {
                size: -1
              }
            }
          }
        }
      }
      attr {
        key: "keep_dims"
        value {
          b: false
        }
      }
    }
    node {
      name: "metrics/acc/Size"
      op: "Size"
      input: "metrics/acc/Mean"
      attr {
        key: "T"
        value {
          type: DT_FLOAT
        }
      }
      attr {
        key: "_output_shapes"
        value {
          list {
            shape {
            }
          }
        }
      }
      attr {
        key: "out_type"
        value {
          type: DT_INT32
        }
      }
    }
    node {
      name: "metrics/acc/Cast_3"
      op: "Cast"
      input: "metrics/acc/Size"
      attr {
        key: "DstT"
        value {
          type: DT_FLOAT
        }
      }
      attr {
        key: "SrcT"
        value {
          type: DT_INT32
        }
      }
      attr {
        key: "Truncate"
        value {
          b: false
        }
      }
      attr {
        key: "_output_shapes"
        value {
          list {
            shape {
            }
          }
        }
      }
    }
    node {
      name: "metrics/acc/Const"
      op: "Const"
      attr {
        key: "_output_shapes"
        value {
          list {
            shape {
              dim {
                size: 1
              }
            }
          }
        }
      }
      attr {
        key: "dtype"
        value {
          type: DT_INT32
        }
      }
      attr {
        key: "value"
        value {
          tensor {
            dtype: DT_INT32
            tensor_shape {
              dim {
                size: 1
              }
            }
            int_val: 0
          }
        }
      }
    }
    node {
      name: "metrics/acc/Sum"
      op: "Sum"
      input: "metrics/acc/Mean"
      input: "metrics/acc/Const"
      attr {
        key: "T"
        value {
          type: DT_FLOAT
        }
      }
      attr {
        key: "Tidx"
        value {
          type: DT_INT32
        }
      }
      attr {
        key: "_output_shapes"
        value {
          list {
            shape {
            }
          }
        }
      }
      attr {
        key: "keep_dims"
        value {
          b: false
        }
      }
    }
    node {
      name: "metrics/acc/AssignAddVariableOp"
      op: "AssignAddVariableOp"
      input: "total"
      input: "metrics/acc/Sum"
      attr {
        key: "dtype"
        value {
          type: DT_FLOAT
        }
      }
    }
    node {
      name: "metrics/acc/ReadVariableOp"
      op: "ReadVariableOp"
      input: "total"
      input: "^metrics/acc/AssignAddVariableOp"
      attr {
        key: "_output_shapes"
        value {
          list {
            shape {
            }
          }
        }
      }
      attr {
        key: "dtype"
        value {
          type: DT_FLOAT
        }
      }
    }
    node {
      name: "metrics/acc/AssignAddVariableOp_1"
      op: "AssignAddVariableOp"
      input: "count"
      input: "metrics/acc/Cast_3"
      input: "^metrics/acc/ReadVariableOp"
      attr {
        key: "dtype"
        value {
          type: DT_FLOAT
        }
      }
    }
    node {
      name: "metrics/acc/ReadVariableOp_1"
      op: "ReadVariableOp"
      input: "count"
      input: "^metrics/acc/AssignAddVariableOp_1"
      input: "^metrics/acc/ReadVariableOp"
      attr {
        key: "_output_shapes"
        value {
          list {
            shape {
            }
          }
        }
      }
      attr {
        key: "dtype"
        value {
          type: DT_FLOAT
        }
      }
    }
    node {
      name: "metrics/acc/div_no_nan/ReadVariableOp"
      op: "ReadVariableOp"
      input: "total"
      input: "^metrics/acc/ReadVariableOp_1"
      attr {
        key: "_output_shapes"
        value {
          list {
            shape {
            }
          }
        }
      }
      attr {
        key: "dtype"
        value {
          type: DT_FLOAT
        }
      }
    }
    node {
      name: "metrics/acc/div_no_nan/ReadVariableOp_1"
      op: "ReadVariableOp"
      input: "count"
      input: "^metrics/acc/ReadVariableOp_1"
      attr {
        key: "_output_shapes"
        value {
          list {
            shape {
            }
          }
        }
      }
      attr {
        key: "dtype"
        value {
          type: DT_FLOAT
        }
      }
    }
    node {
      name: "metrics/acc/div_no_nan"
      op: "DivNoNan"
      input: "metrics/acc/div_no_nan/ReadVariableOp"
      input: "metrics/acc/div_no_nan/ReadVariableOp_1"
      attr {
        key: "T"
        value {
          type: DT_FLOAT
        }
      }
      attr {
        key: "_output_shapes"
        value {
          list {
            shape {
            }
          }
        }
      }
    }
    node {
      name: "metrics/acc/Cast_4/x"
      op: "Const"
      attr {
        key: "_output_shapes"
        value {
          list {
            shape {
            }
          }
        }
      }
      attr {
        key: "dtype"
        value {
          type: DT_FLOAT
        }
      }
      attr {
        key: "value"
        value {
          tensor {
            dtype: DT_FLOAT
            tensor_shape {
            }
            float_val: 0.5
          }
        }
      }
    }
    node {
      name: "metrics/acc/Greater_1"
      op: "Greater"
      input: "dense/Sigmoid"
      input: "metrics/acc/Cast_4/x"
      attr {
        key: "T"
        value {
          type: DT_FLOAT
        }
      }
      attr {
        key: "_output_shapes"
        value {
          list {
            shape {
              dim {
                size: -1
              }
              dim {
                size: 1
              }
            }
          }
        }
      }
    }
    node {
      name: "metrics/acc/Cast_5"
      op: "Cast"
      input: "metrics/acc/Greater_1"
      attr {
        key: "DstT"
        value {
          type: DT_FLOAT
        }
      }
      attr {
        key: "SrcT"
        value {
          type: DT_BOOL
        }
      }
      attr {
        key: "Truncate"
        value {
          b: false
        }
      }
      attr {
        key: "_output_shapes"
        value {
          list {
            shape {
              dim {
                size: -1
              }
              dim {
                size: 1
              }
            }
          }
        }
      }
    }
    node {
      name: "metrics/acc/Equal_1"
      op: "Equal"
      input: "dense_target"
      input: "metrics/acc/Cast_5"
      attr {
        key: "T"
        value {
          type: DT_FLOAT
        }
      }
      attr {
        key: "_output_shapes"
        value {
          list {
            shape {
              dim {
                size: -1
              }
              dim {
                size: -1
              }
            }
          }
        }
      }
    }
    node {
      name: "metrics/acc/Cast_6"
      op: "Cast"
      input: "metrics/acc/Equal_1"
      attr {
        key: "DstT"
        value {
          type: DT_FLOAT
        }
      }
      attr {
        key: "SrcT"
        value {
          type: DT_BOOL
        }
      }
      attr {
        key: "Truncate"
        value {
          b: false
        }
      }
      attr {
        key: "_output_shapes"
        value {
          list {
            shape {
              dim {
                size: -1
              }
              dim {
                size: -1
              }
            }
          }
        }
      }
    }
    node {
      name: "metrics/acc/Mean_1/reduction_indices"
      op: "Const"
      attr {
        key: "_output_shapes"
        value {
          list {
            shape {
            }
          }
        }
      }
      attr {
        key: "dtype"
        value {
          type: DT_INT32
        }
      }
      attr {
        key: "value"
        value {
          tensor {
            dtype: DT_INT32
            tensor_shape {
            }
            int_val: -1
          }
        }
      }
    }
    node {
      name: "metrics/acc/Mean_1"
      op: "Mean"
      input: "metrics/acc/Cast_6"
      input: "metrics/acc/Mean_1/reduction_indices"
      attr {
        key: "T"
        value {
          type: DT_FLOAT
        }
      }
      attr {
        key: "Tidx"
        value {
          type: DT_INT32
        }
      }
      attr {
        key: "_output_shapes"
        value {
          list {
            shape {
              dim {
                size: -1
              }
            }
          }
        }
      }
      attr {
        key: "keep_dims"
        value {
          b: false
        }
      }
    }
    node {
      name: "metrics/acc/Const_1"
      op: "Const"
      attr {
        key: "_output_shapes"
        value {
          list {
            shape {
              dim {
                size: 1
              }
            }
          }
        }
      }
      attr {
        key: "dtype"
        value {
          type: DT_INT32
        }
      }
      attr {
        key: "value"
        value {
          tensor {
            dtype: DT_INT32
            tensor_shape {
              dim {
                size: 1
              }
            }
            int_val: 0
          }
        }
      }
    }
    node {
      name: "metrics/acc/Mean_2"
      op: "Mean"
      input: "metrics/acc/Mean_1"
      input: "metrics/acc/Const_1"
      attr {
        key: "T"
        value {
          type: DT_FLOAT
        }
      }
      attr {
        key: "Tidx"
        value {
          type: DT_INT32
        }
      }
      attr {
        key: "_output_shapes"
        value {
          list {
            shape {
            }
          }
        }
      }
      attr {
        key: "keep_dims"
        value {
          b: false
        }
      }
    }
    node {
      name: "keras_learning_phase/input"
      op: "Const"
      attr {
        key: "_output_shapes"
        value {
          list {
            shape {
            }
          }
        }
      }
      attr {
        key: "dtype"
        value {
          type: DT_BOOL
        }
      }
      attr {
        key: "value"
        value {
          tensor {
            dtype: DT_BOOL
            tensor_shape {
            }
            bool_val: false
          }
        }
      }
    }
    node {
      name: "keras_learning_phase"
      op: "PlaceholderWithDefault"
      input: "keras_learning_phase/input"
      attr {
        key: "_output_shapes"
        value {
          list {
            shape {
            }
          }
        }
      }
      attr {
        key: "dtype"
        value {
          type: DT_BOOL
        }
      }
      attr {
        key: "shape"
        value {
          shape {
          }
        }
      }
    }
    node {
      name: "training/Adam/gradients/Shape"
      op: "Const"
      attr {
        key: "_class"
        value {
          list {
            s: "loc:@loss/mul"
          }
        }
      }
      attr {
        key: "_output_shapes"
        value {
          list {
            shape {
              dim {
              }
            }
          }
        }
      }
      attr {
        key: "dtype"
        value {
          type: DT_INT32
        }
      }
      attr {
        key: "value"
        value {
          tensor {
            dtype: DT_INT32
            tensor_shape {
              dim {
              }
            }
          }
        }
      }
    }
    node {
      name: "training/Adam/gradients/grad_ys_0"
      op: "Const"
      attr {
        key: "_class"
        value {
          list {
            s: "loc:@loss/mul"
          }
        }
      }
      attr {
        key: "_output_shapes"
        value {
          list {
            shape {
            }
          }
        }
      }
…
        value {
          type: DT_FLOAT
        }
      }
    }
    node {
      name: "training_1/group_deps"
      op: "NoOp"
      input: "^loss/mul"
      input: "^metrics/acc/div_no_nan"
      input: "^training/Adam/ReadVariableOp_15"
      input: "^training/Adam/ReadVariableOp_16"
      input: "^training/Adam/ReadVariableOp_17"
      input: "^training/Adam/ReadVariableOp_7"
      input: "^training/Adam/ReadVariableOp_8"
      input: "^training/Adam/ReadVariableOp_9"
    }
    node {
      name: "Placeholder"
      op: "Placeholder"
      attr {
        key: "_output_shapes"
        value {
          list {
            shape {
            }
          }
        }
      }
      attr {
        key: "dtype"
        value {
          type: DT_FLOAT
        }
      }
      attr {
        key: "shape"
        value {
          shape {
          }
        }
      }
    }
    node {
      name: "AssignVariableOp"
      op: "AssignVariableOp"
      input: "total"
      input: "Placeholder"
      attr {
        key: "dtype"
        value {
          type: DT_FLOAT
        }
      }
    }
    node {
      name: "ReadVariableOp"
      op: "ReadVariableOp"
      input: "total"
      input: "^AssignVariableOp"
      attr {
        key: "_output_shapes"
        value {
          list {
            shape {
            }
          }
        }
      }
      attr {
        key: "dtype"
        value {
          type: DT_FLOAT
        }
      }
    }
    node {
      name: "VarIsInitializedOp"
      op: "VarIsInitializedOp"
      input: "total"
      attr {
        key: "_output_shapes"
        value {
          list {
            shape {
            }
          }
        }
      }
    }
    node {
      name: "VarIsInitializedOp_1"
      op: "VarIsInitializedOp"
      input: "training/Adam/Variable"
      attr {
        key: "_output_shapes"
        value {
          list {
            shape {
            }
          }
        }
      }
    }
    node {
      name: "VarIsInitializedOp_2"
      op: "VarIsInitializedOp"
      input: "count"
      attr {
        key: "_output_shapes"
        value {
          list {
            shape {
            }
          }
        }
      }
    }
    node {
      name: "VarIsInitializedOp_3"
      op: "VarIsInitializedOp"
      input: "training/Adam/Variable_5"
      attr {
        key: "_output_shapes"
        value {
          list {
            shape {
            }
          }
        }
      }
    }
    node {
      name: "VarIsInitializedOp_4"
      op: "VarIsInitializedOp"
      input: "training/Adam/Variable_2"
      attr {
        key: "_output_shapes"
        value {
          list {
            shape {
            }
          }
        }
      }
    }
    node {
      name: "VarIsInitializedOp_5"
      op: "VarIsInitializedOp"
      input: "dense/bias"
      attr {
        key: "_output_shapes"
        value {
          list {
            shape {
            }
          }
        }
      }
    }
    node {
      name: "VarIsInitializedOp_6"
      op: "VarIsInitializedOp"
      input: "dense/kernel"
      attr {
        key: "_output_shapes"
        value {
          list {
            shape {
            }
          }
        }
      }
    }
    node {
      name: "VarIsInitializedOp_7"
      op: "VarIsInitializedOp"
      input: "Adam/decay"
      attr {
        key: "_output_shapes"
        value {
          list {
            shape {
            }
          }
        }
      }
    }
    node {
      name: "VarIsInitializedOp_8"
      op: "VarIsInitializedOp"
      input: "training/Adam/Variable_4"
      attr {
        key: "_output_shapes"
        value {
          list {
            shape {
            }
          }
        }
      }
    }
    node {
      name: "VarIsInitializedOp_9"
      op: "VarIsInitializedOp"
      input: "Adam/lr"
      attr {
        key: "_output_shapes"
        value {
          list {
            shape {
            }
          }
        }
      }
    }
    node {
      name: "VarIsInitializedOp_10"
      op: "VarIsInitializedOp"
      input: "Adam/beta_1"
      attr {
        key: "_output_shapes"
        value {
          list {
            shape {
            }
          }
        }
      }
    }
    node {
      name: "VarIsInitializedOp_11"
      op: "VarIsInitializedOp"
      input: "training/Adam/Variable_1"
      attr {
        key: "_output_shapes"
        value {
          list {
            shape {
            }
          }
        }
      }
    }
    node {
      name: "VarIsInitializedOp_12"
      op: "VarIsInitializedOp"
      input: "Adam/beta_2"
      attr {
        key: "_output_shapes"
        value {
          list {
            shape {
            }
          }
        }
      }
    }
    node {
      name: "VarIsInitializedOp_13"
      op: "VarIsInitializedOp"
      input: "Adam/iterations"
      attr {
        key: "_output_shapes"
        value {
          list {
            shape {
            }
          }
        }
      }
    }
    node {
      name: "VarIsInitializedOp_14"
      op: "VarIsInitializedOp"
      input: "training/Adam/Variable_3"
      attr {
        key: "_output_shapes"
        value {
          list {
            shape {
            }
          }
        }
      }
    }
    node {
      name: "init"
      op: "NoOp"
      input: "^Adam/beta_1/Assign"
      input: "^Adam/beta_2/Assign"
      input: "^Adam/decay/Assign"
      input: "^Adam/iterations/Assign"
      input: "^Adam/lr/Assign"
      input: "^count/Assign"
      input: "^dense/bias/Assign"
      input: "^dense/kernel/Assign"
      input: "^total/Assign"
      input: "^training/Adam/Variable/Assign"
      input: "^training/Adam/Variable_1/Assign"
      input: "^training/Adam/Variable_2/Assign"
      input: "^training/Adam/Variable_3/Assign"
      input: "^training/Adam/Variable_4/Assign"
      input: "^training/Adam/Variable_5/Assign"
    }
    node {
      name: "Placeholder_1"
      op: "Placeholder"
      attr {
        key: "_output_shapes"
        value {
          list {
            shape {
            }
          }
        }
      }
      attr {
        key: "dtype"
        value {
          type: DT_FLOAT
        }
      }
      attr {
        key: "shape"
        value {
          shape {
          }
        }
      }
    }
    node {
      name: "AssignVariableOp_1"
      op: "AssignVariableOp"
      input: "count"
      input: "Placeholder_1"
      attr {
        key: "dtype"
        value {
          type: DT_FLOAT
        }
      }
    }
    node {
      name: "ReadVariableOp_1"
      op: "ReadVariableOp"
      input: "count"
      input: "^AssignVariableOp_1"
      attr {
        key: "_output_shapes"
        value {
          list {
            shape {
            }
          }
        }
      }
      attr {
        key: "dtype"
        value {
          type: DT_FLOAT
        }
      }
    }
    node {
      name: "evaluation/group_deps"
      op: "NoOp"
      input: "^loss/mul"
      input: "^metrics/acc/div_no_nan"
    }
    node {
      name: "save/filename/input"
      op: "Const"
      attr {
        key: "_output_shapes"
        value {
          list {
            shape {
            }
          }
        }
      }
      attr {
        key: "dtype"
        value {
          type: DT_STRING
        }
      }
      attr {
        key: "value"
        value {
          tensor {
            dtype: DT_STRING
            tensor_shape {
            }
            string_val: "model"
          }
        }
      }
    }
    node {
      name: "save/filename"
      op: "PlaceholderWithDefault"
      input: "save/filename/input"
      attr {
        key: "_output_shapes"
        value {
          list {
            shape {
            }
          }
        }
      }
      attr {
        key: "dtype"
        value {
          type: DT_STRING
        }
      }
      attr {
        key: "shape"
        value {
          shape {
          }
        }
      }
    }
    node {
      name: "save/Const"
      op: "PlaceholderWithDefault"
      input: "save/filename"
      attr {
        key: "_output_shapes"
        value {
          list {
            shape {
            }
          }
        }
      }
      attr {
        key: "dtype"
        value {
          type: DT_STRING
        }
      }
      attr {
        key: "shape"
        value {
          shape {
          }
        }
      }
    }
    node {
      name: "save/StringJoin/inputs_1"
      op: "Const"
      attr {
        key: "_output_shapes"
        value {
          list {
            shape {
            }
          }
        }
      }
      attr {
        key: "dtype"
        value {
          type: DT_STRING
        }
      }
      attr {
        key: "value"
        value {
          tensor {
            dtype: DT_STRING
            tensor_shape {
            }
            string_val: "_temp_4e04b95881874e0dbccc52dc4a945a6f/part"
          }
        }
      }
    }
    node {
      name: "save/StringJoin"
      op: "StringJoin"
      input: "save/Const"
      input: "save/StringJoin/inputs_1"
      attr {
        key: "N"
        value {
          i: 2
        }
      }
      attr {
        key: "_output_shapes"
        value {
          list {
            shape {
            }
          }
        }
      }
      attr {
        key: "separator"
        value {
          s: ""
        }
      }
    }
    node {
      name: "save/num_shards"
      op: "Const"
      attr {
        key: "_output_shapes"
        value {
          list {
            shape {
            }
          }
        }
      }
      attr {
        key: "dtype"
        value {
          type: DT_INT32
        }
      }
      attr {
        key: "value"
        value {
          tensor {
            dtype: DT_INT32
            tensor_shape {
            }
            int_val: 1
          }
        }
      }
    }
    node {
      name: "save/ShardedFilename/shard"
      op: "Const"
      device: "/device:CPU:0"
      attr {
        key: "_output_shapes"
        value {
          list {
            shape {
            }
          }
        }
      }
      attr {
        key: "dtype"
        value {
          type: DT_INT32
        }
      }
      attr {
        key: "value"
        value {
          tensor {
            dtype: DT_INT32
            tensor_shape {
            }
            int_val: 0
          }
        }
      }
    }
    node {
      name: "save/ShardedFilename"
      op: "ShardedFilename"
      input: "save/StringJoin"
      input: "save/ShardedFilename/shard"
      input: "save/num_shards"
      device: "/device:CPU:0"
      attr {
        key: "_output_shapes"
        value {
          list {
            shape {
            }
          }
        }
      }
    }
    node {
      name: "save/SaveV2/tensor_names"
      op: "Const"
      device: "/device:CPU:0"
      attr {
        key: "_output_shapes"
        value {
          list {
            shape {
              dim {
                size: 13
              }
            }
          }
        }
      }
      attr {
        key: "dtype"
        value {
          type: DT_STRING
        }
      }
      attr {
        key: "value"
        value {
          tensor {
            dtype: DT_STRING
            tensor_shape {
              dim {
                size: 13
              }
            }
            string_val: "Adam/beta_1"
            string_val: "Adam/beta_2"
            string_val: "Adam/decay"
            string_val: "Adam/iterations"
            string_val: "Adam/lr"
            string_val: "dense/bias"
            string_val: "dense/kernel"
            string_val: "training/Adam/Variable"
            string_val: "training/Adam/Variable_1"
            string_val: "training/Adam/Variable_2"
            string_val: "training/Adam/Variable_3"
            string_val: "training/Adam/Variable_4"
            string_val: "training/Adam/Variable_5"
          }
        }
      }
    }
    node {
      name: "save/SaveV2/shape_and_slices"
      op: "Const"
      device: "/device:CPU:0"
      attr {
        key: "_output_shapes"
        value {
          list {
            shape {
              dim {
                size: 13
              }
            }
          }
        }
      }
      attr {
        key: "dtype"
        value {
          type: DT_STRING
        }
      }
      attr {
        key: "value"
        value {
          tensor {
            dtype: DT_STRING
            tensor_shape {
              dim {
                size: 13
              }
            }
            string_val: ""
            string_val: ""
            string_val: ""
            string_val: ""
            string_val: ""
            string_val: ""
            string_val: ""
            string_val: ""
            string_val: ""
            string_val: ""
            string_val: ""
            string_val: ""
            string_val: ""
          }
        }
      }
    }
    node {
      name: "save/SaveV2"
      op: "SaveV2"
      input: "save/ShardedFilename"
      input: "save/SaveV2/tensor_names"
      input: "save/SaveV2/shape_and_slices"
      input: "Adam/beta_1/Read/ReadVariableOp"
      input: "Adam/beta_2/Read/ReadVariableOp"
      input: "Adam/decay/Read/ReadVariableOp"
      input: "Adam/iterations/Read/ReadVariableOp"
      input: "Adam/lr/Read/ReadVariableOp"
      input: "dense/bias/Read/ReadVariableOp"
      input: "dense/kernel/Read/ReadVariableOp"
      input: "training/Adam/Variable/Read/ReadVariableOp"
      input: "training/Adam/Variable_1/Read/ReadVariableOp"
      input: "training/Adam/Variable_2/Read/ReadVariableOp"
      input: "training/Adam/Variable_3/Read/ReadVariableOp"
      input: "training/Adam/Variable_4/Read/ReadVariableOp"
      input: "training/Adam/Variable_5/Read/ReadVariableOp"
      device: "/device:CPU:0"
      attr {
        key: "dtypes"
        value {
          list {
            type: DT_FLOAT
            type: DT_FLOAT
            type: DT_FLOAT
            type: DT_INT64
            type: DT_FLOAT
            type: DT_FLOAT
            type: DT_FLOAT
            type: DT_FLOAT
            type: DT_FLOAT
            type: DT_FLOAT
            type: DT_FLOAT
            type: DT_FLOAT
            type: DT_FLOAT
          }
        }
      }
    }
    node {
      name: "save/control_dependency"
      op: "Identity"
      input: "save/ShardedFilename"
      input: "^save/SaveV2"
      device: "/device:CPU:0"
      attr {
        key: "T"
        value {
          type: DT_STRING
        }
      }
      attr {
        key: "_class"
        value {
          list {
            s: "loc:@save/ShardedFilename"
          }
        }
      }
      attr {
        key: "_output_shapes"
        value {
          list {
            shape {
            }
          }
        }
      }
    }
    node {
      name: "save/MergeV2Checkpoints/checkpoint_prefixes"
      op: "Pack"
      input: "save/ShardedFilename"
      input: "^save/control_dependency"
      device: "/device:CPU:0"
      attr {
        key: "N"
        value {
          i: 1
        }
      }
      attr {
        key: "T"
        value {
          type: DT_STRING
        }
      }
      attr {
        key: "_output_shapes"
        value {
          list {
            shape {
              dim {
                size: 1
              }
            }
          }
        }
      }
      attr {
        key: "axis"
        value {
          i: 0
        }
      }
    }
    node {
      name: "save/MergeV2Checkpoints"
      op: "MergeV2Checkpoints"
      input: "save/MergeV2Checkpoints/checkpoint_prefixes"
      input: "save/Const"
      device: "/device:CPU:0"
      attr {
        key: "delete_old_dirs"
        value {
          b: true
        }
      }
    }
    node {
      name: "save/Identity"
      op: "Identity"
      input: "save/Const"
      input: "^save/MergeV2Checkpoints"
      input: "^save/control_dependency"
      device: "/device:CPU:0"
      attr {
        key: "T"
        value {
          type: DT_STRING
        }
      }
      attr {
        key: "_output_shapes"
        value {
          list {
            shape {
            }
          }
        }
      }
    }
    node {
      name: "save/RestoreV2/tensor_names"
      op: "Const"
      device: "/device:CPU:0"
      attr {
        key: "_output_shapes"
        value {
          list {
            shape {
              dim {
                size: 13
              }
            }
          }
        }
      }
      attr {
        key: "dtype"
        value {
          type: DT_STRING
        }
      }
      attr {
        key: "value"
        value {
          tensor {
            dtype: DT_STRING
            tensor_shape {
              dim {
                size: 13
              }
            }
            string_val: "Adam/beta_1"
            string_val: "Adam/beta_2"
            string_val: "Adam/decay"
            string_val: "Adam/iterations"
            string_val: "Adam/lr"
            string_val: "dense/bias"
            string_val: "dense/kernel"
            string_val: "training/Adam/Variable"
            string_val: "training/Adam/Variable_1"
            string_val: "training/Adam/Variable_2"
            string_val: "training/Adam/Variable_3"
            string_val: "training/Adam/Variable_4"
            string_val: "training/Adam/Variable_5"
          }
        }
      }
    }
    node {
      name: "save/RestoreV2/shape_and_slices"
      op: "Const"
      device: "/device:CPU:0"
      attr {
        key: "_output_shapes"
        value {
          list {
            shape {
              dim {
                size: 13
              }
            }
          }
        }
      }
      attr {
        key: "dtype"
        value {
          type: DT_STRING
        }
      }
      attr {
        key: "value"
        value {
          tensor {
            dtype: DT_STRING
            tensor_shape {
              dim {
                size: 13
              }
            }
            string_val: ""
            string_val: ""
            string_val: ""
            string_val: ""
            string_val: ""
            string_val: ""
            string_val: ""
            string_val: ""
            string_val: ""
            string_val: ""
            string_val: ""
            string_val: ""
            string_val: ""
          }
        }
      }
    }
    node {
      name: "save/RestoreV2"
      op: "RestoreV2"
      input: "save/Const"
      input: "save/RestoreV2/tensor_names"
      input: "save/RestoreV2/shape_and_slices"
      device: "/device:CPU:0"
      attr {
        key: "_output_shapes"
        value {
          list {
            shape {
              unknown_rank: true
            }
            shape {
              unknown_rank: true
            }
            shape {
              unknown_rank: true
            }
            shape {
              unknown_rank: true
            }
            shape {
              unknown_rank: true
            }
            shape {
              unknown_rank: true
            }
            shape {
              unknown_rank: true
            }
            shape {
              unknown_rank: true
            }
            shape {
              unknown_rank: true
            }
            shape {
              unknown_rank: true
            }
            shape {
              unknown_rank: true
            }
            shape {
              unknown_rank: true
            }
            shape {
              unknown_rank: true
            }
          }
        }
      }
      attr {
        key: "dtypes"
        value {
          list {
            type: DT_FLOAT
            type: DT_FLOAT
            type: DT_FLOAT
            type: DT_INT64
            type: DT_FLOAT
            type: DT_FLOAT
            type: DT_FLOAT
            type: DT_FLOAT
            type: DT_FLOAT
            type: DT_FLOAT
            type: DT_FLOAT
            type: DT_FLOAT
            type: DT_FLOAT
          }
        }
      }
    }
    node {
      name: "save/Identity_1"
      op: "Identity"
      input: "save/RestoreV2"
      attr {
        key: "T"
        value {
          type: DT_FLOAT
        }
      }
      attr {
        key: "_output_shapes"
        value {
          list {
            shape {
              unknown_rank: true
            }
          }
        }
      }
    }
    node {
      name: "save/AssignVariableOp"
      op: "AssignVariableOp"
      input: "Adam/beta_1"
      input: "save/Identity_1"
      attr {
        key: "dtype"
        value {
          type: DT_FLOAT
        }
      }
    }
    node {
      name: "save/Identity_2"
      op: "Identity"
      input: "save/RestoreV2:1"
      attr {
        key: "T"
        value {
          type: DT_FLOAT
        }
      }
      attr {
        key: "_output_shapes"
        value {
          list {
            shape {
              unknown_rank: true
            }
          }
        }
      }
    }
    node {
      name: "save/AssignVariableOp_1"
      op: "AssignVariableOp"
      input: "Adam/beta_2"
      input: "save/Identity_2"
      attr {
        key: "dtype"
        value {
          type: DT_FLOAT
        }
      }
    }
    node {
      name: "save/Identity_3"
      op: "Identity"
      input: "save/RestoreV2:2"
      attr {
        key: "T"
        value {
          type: DT_FLOAT
        }
      }
      attr {
        key: "_output_shapes"
        value {
          list {
            shape {
              unknown_rank: true
            }
          }
        }
      }
    }
    node {
      name: "save/AssignVariableOp_2"
      op: "AssignVariableOp"
      input: "Adam/decay"
      input: "save/Identity_3"
      attr {
        key: "dtype"
        value {
          type: DT_FLOAT
        }
      }
    }
    node {
      name: "save/Identity_4"
      op: "Identity"
      input: "save/RestoreV2:3"
      attr {
        key: "T"
        value {
          type: DT_INT64
        }
      }
      attr {
        key: "_output_shapes"
        value {
          list {
            shape {
              unknown_rank: true
            }
          }
        }
      }
    }
    node {
      name: "save/AssignVariableOp_3"
      op: "AssignVariableOp"
      input: "Adam/iterations"
      input: "save/Identity_4"
      attr {
        key: "dtype"
        value {
          type: DT_INT64
        }
      }
    }
    node {
      name: "save/Identity_5"
      op: "Identity"
      input: "save/RestoreV2:4"
      attr {
        key: "T"
        value {
          type: DT_FLOAT
        }
      }
      attr {
        key: "_output_shapes"
        value {
          list {
            shape {
              unknown_rank: true
            }
          }
        }
      }
    }
    node {
      name: "save/AssignVariableOp_4"
      op: "AssignVariableOp"
      input: "Adam/lr"
      input: "save/Identity_5"
      attr {
        key: "dtype"
        value {
          type: DT_FLOAT
        }
      }
    }
    node {
      name: "save/Identity_6"
      op: "Identity"
      input: "save/RestoreV2:5"
      attr {
        key: "T"
        value {
          type: DT_FLOAT
        }
      }
      attr {
        key: "_output_shapes"
        value {
          list {
            shape {
              unknown_rank: true
            }
          }
        }
      }
    }
    node {
      name: "save/AssignVariableOp_5"
      op: "AssignVariableOp"
      input: "dense/bias"
      input: "save/Identity_6"
      attr {
        key: "dtype"
        value {
          type: DT_FLOAT
        }
      }
    }
    node {
      name: "save/Identity_7"
      op: "Identity"
      input: "save/RestoreV2:6"
      attr {
        key: "T"
        value {
          type: DT_FLOAT
        }
      }
      attr {
        key: "_output_shapes"
        value {
          list {
            shape {
              unknown_rank: true
            }
          }
        }
      }
    }
    node {
      name: "save/AssignVariableOp_6"
      op: "AssignVariableOp"
      input: "dense/kernel"
      input: "save/Identity_7"
      attr {
        key: "dtype"
        value {
          type: DT_FLOAT
        }
      }
    }
    node {
      name: "save/Identity_8"
      op: "Identity"
      input: "save/RestoreV2:7"
      attr {
        key: "T"
        value {
          type: DT_FLOAT
        }
      }
      attr {
        key: "_output_shapes"
        value {
          list {
            shape {
              unknown_rank: true
            }
          }
        }
      }
    }
    node {
      name: "save/AssignVariableOp_7"
      op: "AssignVariableOp"
      input: "training/Adam/Variable"
      input: "save/Identity_8"
      attr {
        key: "dtype"
        value {
          type: DT_FLOAT
        }
      }
    }
    node {
      name: "save/Identity_9"
      op: "Identity"
      input: "save/RestoreV2:8"
      attr {
        key: "T"
        value {
          type: DT_FLOAT
        }
      }
      attr {
        key: "_output_shapes"
        value {
          list {
            shape {
              unknown_rank: true
            }
          }
        }
      }
    }
    node {
      name: "save/AssignVariableOp_8"
      op: "AssignVariableOp"
      input: "training/Adam/Variable_1"
      input: "save/Identity_9"
      attr {
        key: "dtype"
        value {
          type: DT_FLOAT
        }
      }
    }
    node {
      name: "save/Identity_10"
      op: "Identity"
      input: "save/RestoreV2:9"
      attr {
        key: "T"
        value {
          type: DT_FLOAT
        }
      }
      attr {
        key: "_output_shapes"
        value {
          list {
            shape {
              unknown_rank: true
            }
          }
        }
      }
    }
    node {
      name: "save/AssignVariableOp_9"
      op: "AssignVariableOp"
      input: "training/Adam/Variable_2"
      input: "save/Identity_10"
      attr {
        key: "dtype"
        value {
          type: DT_FLOAT
        }
      }
    }
    node {
      name: "save/Identity_11"
      op: "Identity"
      input: "save/RestoreV2:10"
      attr {
        key: "T"
        value {
          type: DT_FLOAT
        }
      }
      attr {
        key: "_output_shapes"
        value {
          list {
            shape {
              unknown_rank: true
            }
          }
        }
      }
    }
    node {
      name: "save/AssignVariableOp_10"
      op: "AssignVariableOp"
      input: "training/Adam/Variable_3"
      input: "save/Identity_11"
      attr {
        key: "dtype"
        value {
          type: DT_FLOAT
        }
      }
    }
    node {
      name: "save/Identity_12"
      op: "Identity"
      input: "save/RestoreV2:11"
      attr {
        key: "T"
        value {
          type: DT_FLOAT
        }
      }
      attr {
        key: "_output_shapes"
        value {
          list {
            shape {
              unknown_rank: true
            }
          }
        }
      }
    }
    node {
      name: "save/AssignVariableOp_11"
      op: "AssignVariableOp"
      input: "training/Adam/Variable_4"
      input: "save/Identity_12"
      attr {
        key: "dtype"
        value {
          type: DT_FLOAT
        }
      }
    }
    node {
      name: "save/Identity_13"
      op: "Identity"
      input: "save/RestoreV2:12"
      attr {
        key: "T"
        value {
          type: DT_FLOAT
        }
      }
      attr {
        key: "_output_shapes"
        value {
          list {
            shape {
              unknown_rank: true
            }
          }
        }
      }
    }
    node {
      name: "save/AssignVariableOp_12"
      op: "AssignVariableOp"
      input: "training/Adam/Variable_5"
      input: "save/Identity_13"
      attr {
        key: "dtype"
        value {
          type: DT_FLOAT
        }
      }
    }
    node {
      name: "save/restore_shard"
      op: "NoOp"
      input: "^save/AssignVariableOp"
      input: "^save/AssignVariableOp_1"
      input: "^save/AssignVariableOp_10"
      input: "^save/AssignVariableOp_11"
      input: "^save/AssignVariableOp_12"
      input: "^save/AssignVariableOp_2"
      input: "^save/AssignVariableOp_3"
      input: "^save/AssignVariableOp_4"
      input: "^save/AssignVariableOp_5"
      input: "^save/AssignVariableOp_6"
      input: "^save/AssignVariableOp_7"
      input: "^save/AssignVariableOp_8"
      input: "^save/AssignVariableOp_9"
    }
    node {
      name: "save/restore_all"
      op: "NoOp"
      input: "^save/restore_shard"
    }
    versions {
      producer: 27
    }
  }
  saver_def {
    filename_tensor_name: "save/Const:0"
    save_tensor_name: "save/Identity:0"
    restore_op_name: "save/restore_all"
    max_to_keep: 5
    sharded: true
    keep_checkpoint_every_n_hours: 10000.0
    version: V2
  }
  collection_def {
    key: "cond_context"
    value {
      bytes_list {
        value: "\nOloss/dense_loss/broadcast_weights/assert_broadcastable/is_valid_shape/cond_text\022Oloss/dense_loss/broadcast_weights/assert_broadcastable/is_valid_shape/pred_id:0\032Ploss/dense_loss/broadcast_weights/assert_broadcastable/is_valid_shape/switch_t:0 \001*\311\005\nBloss/dense_loss/broadcast_weights/assert_broadcastable/is_scalar:0\nPloss/dense_loss/broadcast_weights/assert_broadcastable/is_valid_shape/Switch_1:0\nPloss/dense_loss/broadcast_weights/assert_broadcastable/is_valid_shape/Switch_1:1\nOloss/dense_loss/broadcast_weights/assert_broadcastable/is_valid_shape/pred_id:0\nPloss/dense_loss/broadcast_weights/assert_broadcastable/is_valid_shape/switch_t:0\022\242\001\nOloss/dense_loss/broadcast_weights/assert_broadcastable/is_valid_shape/pred_id:0\022Oloss/dense_loss/broadcast_weights/assert_broadcastable/is_valid_shape/pred_id:0\022\226\001\nBloss/dense_loss/broadcast_weights/assert_broadcastable/is_scalar:0\022Ploss/dense_loss/broadcast_weights/assert_broadcastable/is_valid_shape/Switch_1:1"
        value: "\nQloss/dense_loss/broadcast_weights/assert_broadcastable/is_valid_shape/cond_text_1\022Oloss/dense_loss/broadcast_weights/assert_broadcastable/is_valid_shape/pred_id:0\032Ploss/dense_loss/broadcast_weights/assert_broadcastable/is_valid_shape/switch_f:0*\370(\ngloss/dense_loss/broadcast_weights/assert_broadcastable/is_valid_shape/has_valid_nonscalar_shape/Merge:0\ngloss/dense_loss/broadcast_weights/assert_broadcastable/is_valid_shape/has_valid_nonscalar_shape/Merge:1\nhloss/dense_loss/broadcast_weights/assert_broadcastable/is_valid_shape/has_valid_nonscalar_shape/Switch:0\nhloss/dense_loss/broadcast_weights/assert_broadcastable/is_valid_shape/has_valid_nonscalar_shape/Switch:1\njloss/dense_loss/broadcast_weights/assert_broadcastable/is_valid_shape/has_valid_nonscalar_shape/Switch_1:0\njloss/dense_loss/broadcast_weights/assert_broadcastable/is_valid_shape/has_valid_nonscalar_shape/Switch_1:1\n\213\001loss/dense_loss/broadcast_weights/assert_broadcastable/is_valid_shape/has_valid_nonscalar_shape/has_invalid_dims/DenseToDenseSetOperation:0\n\213\001loss/dense_loss/broadcast_weights/assert_broadcastable/is_valid_shape/has_valid_nonscalar_shape/has_invalid_dims/DenseToDenseSetOperation:1\n\213\001loss/dense_loss/broadcast_weights/assert_broadcastable/is_valid_shape/has_valid_nonscalar_shape/has_invalid_dims/DenseToDenseSetOperation:2\n\204\001loss/dense_loss/broadcast_weights/assert_broadcastable/is_valid_shape/has_valid_nonscalar_shape/has_invalid_dims/ExpandDims/Switch:0\n\206\001loss/dense_loss/broadcast_weights/assert_broadcastable/is_valid_shape/has_valid_nonscalar_shape/has_invalid_dims/ExpandDims/Switch_1:1\n\201\001loss/dense_loss/broadcast_weights/assert_broadcastable/is_valid_shape/has_valid_nonscalar_shape/has_invalid_dims/ExpandDims/dim:0\n}loss/dense_loss/broadcast_weights/assert_broadcastable/is_valid_shape/has_valid_nonscalar_shape/has_invalid_dims/ExpandDims:0\n\206\001loss/dense_loss/broadcast_weights/assert_broadcastable/is_valid_shape/has_valid_nonscalar_shape/has_invalid_dims/ExpandDims_1/Switch:0\n\210\001loss/dense_loss/broadcast_weights/assert_broadcastable/is_valid_shape/has_valid_nonscalar_shape/has_invalid_dims/ExpandDims_1/Switch_1:1\n\203\001loss/dense_loss/broadcast_weights/assert_broadcastable/is_valid_shape/has_valid_nonscalar_shape/has_invalid_dims/ExpandDims_1/dim:0\n\177loss/dense_loss/broadcast_weights/assert_broadcastable/is_valid_shape/has_valid_nonscalar_shape/has_invalid_dims/ExpandDims_1:0\n~loss/dense_loss/broadcast_weights/assert_broadcastable/is_valid_shape/has_valid_nonscalar_shape/has_invalid_dims/concat/axis:0\nyloss/dense_loss/broadcast_weights/assert_broadcastable/is_valid_shape/has_valid_nonscalar_shape/has_invalid_dims/concat:0\n\203\001loss/dense_loss/broadcast_weights/assert_broadcastable/is_valid_shape/has_valid_nonscalar_shape/has_invalid_dims/num_invalid_dims:0\n\202\001loss/dense_loss/broadcast_weights/assert_broadcastable/is_valid_shape/has_valid_nonscalar_shape/has_invalid_dims/ones_like/Const:0\n\202\001loss/dense_loss/broadcast_weights/assert_broadcastable/is_valid_shape/has_valid_nonscalar_shape/has_invalid_dims/ones_like/Shape:0\n|loss/dense_loss/broadcast_weights/assert_broadcastable/is_valid_shape/has_valid_nonscalar_shape/has_invalid_dims/ones_like:0\ntloss/dense_loss/broadcast_weights/assert_broadcastable/is_valid_shape/has_valid_nonscalar_shape/has_invalid_dims/x:0\nrloss/dense_loss/broadcast_weights/assert_broadcastable/is_valid_shape/has_valid_nonscalar_shape/has_invalid_dims:0\nuloss/dense_loss/broadcast_weights/assert_broadcastable/is_valid_shape/has_valid_nonscalar_shape/is_same_rank/Switch:0\nwloss/dense_loss/broadcast_weights/assert_broadcastable/is_valid_shape/has_valid_nonscalar_shape/is_same_rank/Switch_1:0\nnloss/dense_loss/broadcast_weights/assert_broadcastable/is_valid_shape/has_valid_nonscalar_shape/is_same_rank:0\niloss/dense_loss/broadcast_weights/assert_broadcastable/is_valid_shape/has_valid_nonscalar_shape/pred_id:0\njloss/dense_loss/broadcast_weights/assert_broadcastable/is_valid_shape/has_valid_nonscalar_shape/switch_f:0\njloss/dense_loss/broadcast_weights/assert_broadcastable/is_valid_shape/has_valid_nonscalar_shape/switch_t:0\nOloss/dense_loss/broadcast_weights/assert_broadcastable/is_valid_shape/pred_id:0\nPloss/dense_loss/broadcast_weights/assert_broadcastable/is_valid_shape/switch_f:0\nDloss/dense_loss/broadcast_weights/assert_broadcastable/values/rank:0\nEloss/dense_loss/broadcast_weights/assert_broadcastable/values/shape:0\nEloss/dense_loss/broadcast_weights/assert_broadcastable/weights/rank:0\nFloss/dense_loss/broadcast_weights/assert_broadcastable/weights/shape:0\022\242\001\nOloss/dense_loss/broadcast_weights/assert_broadcastable/is_valid_shape/pred_id:0\022Oloss/dense_loss/broadcast_weights/assert_broadcastable/is_valid_shape/pred_id:0\022\316\001\nEloss/dense_loss/broadcast_weights/assert_broadcastable/values/shape:0\022\204\001loss/dense_loss/broadcast_weights/assert_broadcastable/is_valid_shape/has_valid_nonscalar_shape/has_invalid_dims/ExpandDims/Switch:0\022\300\001\nEloss/dense_loss/broadcast_weights/assert_broadcastable/weights/rank:0\022wloss/dense_loss/broadcast_weights/assert_broadcastable/is_valid_shape/has_valid_nonscalar_shape/is_same_rank/Switch_1:0\022\275\001\nDloss/dense_loss/broadcast_weights/assert_broadcastable/values/rank:0\022uloss/dense_loss/broadcast_weights/assert_broadcastable/is_valid_shape/has_valid_nonscalar_shape/is_same_rank/Switch:0\022\321\001\nFloss/dense_loss/broadcast_weights/assert_broadcastable/weights/shape:0\022\206\001loss/dense_loss/broadcast_weights/assert_broadcastable/is_valid_shape/has_valid_nonscalar_shape/has_invalid_dims/ExpandDims_1/Switch:02\243\"\n\240\"\niloss/dense_loss/broadcast_weights/assert_broadcastable/is_valid_shape/has_valid_nonscalar_shape/cond_text\022iloss/dense_loss/broadcast_weights/assert_broadcastable/is_valid_shape/has_valid_nonscalar_shape/pred_id:0\032jloss/dense_loss/broadcast_weights/assert_broadcastable/is_valid_shape/has_valid_nonscalar_shape/switch_t:0 \001*\331\037\n\213\001loss/dense_loss/broadcast_weights/assert_broadcastable/is_valid_shape/has_valid_nonscalar_shape/has_invalid_dims/DenseToDenseSetOperation:0\n\213\001loss/dense_loss/broadcast_weights/assert_broadcastable/is_valid_shape/has_valid_nonscalar_shape/has_invalid_dims/DenseToDenseSetOperation:1\n\213\001loss/dense_loss/broadcast_weights/assert_broadcastable/is_valid_shape/has_valid_nonscalar_shape/has_invalid_dims/DenseToDenseSetOperation:2\n\204\001loss/dense_loss/broadcast_weights/assert_broadcastable/is_valid_shape/has_valid_nonscalar_shape/has_invalid_dims/ExpandDims/Switch:0\n\206\001loss/dense_loss/broadcast_weights/assert_broadcastable/is_valid_shape/has_valid_nonscalar_shape/has_invalid_dims/ExpandDims/Switch_1:1\n\201\001loss/dense_loss/broadcast_weights/assert_broadcastable/is_valid_shape/has_valid_nonscalar_shape/has_invalid_dims/ExpandDims/dim:0\n}loss/dense_loss/broadcast_weights/assert_broadcastable/is_valid_shape/has_valid_nonscalar_shape/has_invalid_dims/ExpandDims:0\n\206\001loss/dense_loss/broadcast_weights/assert_broadcastable/is_valid_shape/has_valid_nonscalar_shape/has_invalid_dims/ExpandDims_1/Switch:0\n\210\001loss/dense_loss/broadcast_weights/assert_broadcastable/is_valid_shape/has_valid_nonscalar_shape/has_invalid_dims/ExpandDims_1/Switch_1:1\n\203\001loss/dense_loss/broadcast_weights/assert_broadcastable/is_valid_shape/has_valid_nonscalar_shape/has_invalid_dims/ExpandDims_1/dim:0\n\177loss/dense_loss/broadcast_weights/assert_broadcastable/is_valid_shape/has_valid_nonscalar_shape/has_invalid_dims/ExpandDims_1:0\n~loss/dense_loss/broadcast_weights/assert_broadcastable/is_valid_shape/has_valid_nonscalar_shape/has_invalid_dims/concat/axis:0\nyloss/dense_loss/broadcast_weights/assert_broadcastable/is_valid_shape/has_valid_nonscalar_shape/has_invalid_dims/concat:0\n\203\001loss/dense_loss/broadcast_weights/assert_broadcastable/is_valid_shape/has_valid_nonscalar_shape/has_invalid_dims/num_invalid_dims:0\n\202\001loss/dense_loss/broadcast_weights/assert_broadcastable/is_valid_shape/has_valid_nonscalar_shape/has_invalid_dims/ones_like/Const:0\n\202\001loss/dense_loss/broadcast_weights/assert_broadcastable/is_valid_shape/has_valid_nonscalar_shape/has_invalid_dims/ones_like/Shape:0\n|loss/dense_loss/broadcast_weights/assert_broadcastable/is_valid_shape/has_valid_nonscalar_shape/has_invalid_dims/ones_like:0\ntloss/dense_loss/broadcast_weights/assert_broadcastable/is_valid_shape/has_valid_nonscalar_shape/has_invalid_dims/x:0\nrloss/dense_loss/broadcast_weights/assert_broadcastable/is_valid_shape/has_valid_nonscalar_shape/has_invalid_dims:0\niloss/dense_loss/broadcast_weights/assert_broadcastable/is_valid_shape/has_valid_nonscalar_shape/pred_id:0\njloss/dense_loss/broadcast_weights/assert_broadcastable/is_valid_shape/has_valid_nonscalar_shape/switch_t:0\nEloss/dense_loss/broadcast_weights/assert_broadcastable/values/shape:0\nFloss/dense_loss/broadcast_weights/assert_broadcastable/weights/shape:0\022\323\001\nFloss/dense_loss/broadcast_weights/assert_broadcastable/weights/shape:0\022\210\001loss/dense_loss/broadcast_weights/assert_broadcastable/is_valid_shape/has_valid_nonscalar_shape/has_invalid_dims/ExpandDims_1/Switch_1:1\022\222\002\n\206\001loss/dense_loss/broadcast_weights/assert_broadcastable/is_valid_shape/has_valid_nonscalar_shape/has_invalid_dims/ExpandDims_1/Switch:0\022\206\001loss/dense_loss/broadcast_weights/assert_broadcastable/is_valid_shape/has_valid_nonscalar_shape/has_invalid_dims/ExpandDims_1/Switch:0\022\326\001\niloss/dense_loss/broadcast_weights/assert_broadcastable/is_valid_shape/has_valid_nonscalar_shape/pred_id:0\022iloss/dense_loss/broadcast_weights/assert_broadcastable/is_valid_shape/has_valid_nonscalar_shape/pred_id:0\022\216\002\n\204\001loss/dense_loss/broadcast_weights/assert_broadcastable/is_valid_shape/has_valid_nonscalar_shape/has_invalid_dims/ExpandDims/Switch:0\022\204\001loss/dense_loss/broadcast_weights/assert_broadcastable/is_valid_shape/has_valid_nonscalar_shape/has_invalid_dims/ExpandDims/Switch:0\022\320\001\nEloss/dense_loss/broadcast_weights/assert_broadcastable/values/shape:0\022\206\001loss/dense_loss/broadcast_weights/assert_broadcastable/is_valid_shape/has_valid_nonscalar_shape/has_invalid_dims/ExpandDims/Switch_1:12\241\n\n\236\n\nkloss/dense_loss/broadcast_weights/assert_broadcastable/is_valid_shape/has_valid_nonscalar_shape/cond_text_1\022iloss/dense_loss/broadcast_weights/assert_broadcastable/is_valid_shape/has_valid_nonscalar_shape/pred_id:0\032jloss/dense_loss/broadcast_weights/assert_broadcastable/is_valid_shape/has_valid_nonscalar_shape/switch_f:0*\327\007\njloss/dense_loss/broadcast_weights/assert_broadcastable/is_valid_shape/has_valid_nonscalar_shape/Switch_1:0\njloss/dense_loss/broadcast_weights/assert_broadcastable/is_valid_shape/has_valid_nonscalar_shape/Switch_1:1\nnloss/dense_loss/broadcast_weights/assert_broadcastable/is_valid_shape/has_valid_nonscalar_shape/is_same_rank:0\niloss/dense_loss/broadcast_weights/assert_broadcastable/is_valid_shape/has_valid_nonscalar_shape/pred_id:0\njloss/dense_loss/broadcast_weights/assert_broadcastable/is_valid_shape/has_valid_nonscalar_shape/switch_f:0\022\334\001\nnloss/dense_loss/broadcast_weights/assert_broadcastable/is_valid_shape/has_valid_nonscalar_shape/is_same_rank:0\022jloss/dense_loss/broadcast_weights/assert_broadcastable/is_valid_shape/has_valid_nonscalar_shape/Switch_1:0\022\326\001\niloss/dense_loss/broadcast_weights/assert_broadcastable/is_valid_shape/has_valid_nonscalar_shape/pred_id:0\022iloss/dense_loss/broadcast_weights/assert_broadcastable/is_valid_shape/has_valid_nonscalar_shape/pred_id:0"
        value: "\nLloss/dense_loss/broadcast_weights/assert_broadcastable/AssertGuard/cond_text\022Lloss/dense_loss/broadcast_weights/assert_broadcastable/AssertGuard/pred_id:0\032Mloss/dense_loss/broadcast_weights/assert_broadcastable/AssertGuard/switch_t:0 \001*\225\003\nWloss/dense_loss/broadcast_weights/assert_broadcastable/AssertGuard/control_dependency:0\nLloss/dense_loss/broadcast_weights/assert_broadcastable/AssertGuard/pred_id:0\nMloss/dense_loss/broadcast_weights/assert_broadcastable/AssertGuard/switch_t:0\022\234\001\nLloss/dense_loss/broadcast_weights/assert_broadcastable/AssertGuard/pred_id:0\022Lloss/dense_loss/broadcast_weights/assert_broadcastable/AssertGuard/pred_id:0"
        value: "\nNloss/dense_loss/broadcast_weights/assert_broadcastable/AssertGuard/cond_text_1\022Lloss/dense_loss/broadcast_weights/assert_broadcastable/AssertGuard/pred_id:0\032Mloss/dense_loss/broadcast_weights/assert_broadcastable/AssertGuard/switch_f:0*\213\021\nRloss/dense_loss/broadcast_weights/assert_broadcastable/AssertGuard/Assert/Switch:0\nTloss/dense_loss/broadcast_weights/assert_broadcastable/AssertGuard/Assert/Switch_1:0\nTloss/dense_loss/broadcast_weights/assert_broadcastable/AssertGuard/Assert/Switch_2:0\nTloss/dense_loss/broadcast_weights/assert_broadcastable/AssertGuard/Assert/Switch_3:0\nRloss/dense_loss/broadcast_weights/assert_broadcastable/AssertGuard/Assert/data_0:0\nRloss/dense_loss/broadcast_weights/assert_broadcastable/AssertGuard/Assert/data_1:0\nRloss/dense_loss/broadcast_weights/assert_broadcastable/AssertGuard/Assert/data_2:0\nRloss/dense_loss/broadcast_weights/assert_broadcastable/AssertGuard/Assert/data_4:0\nRloss/dense_loss/broadcast_weights/assert_broadcastable/AssertGuard/Assert/data_5:0\nRloss/dense_loss/broadcast_weights/assert_broadcastable/AssertGuard/Assert/data_7:0\nYloss/dense_loss/broadcast_weights/assert_broadcastable/AssertGuard/control_dependency_1:0\nLloss/dense_loss/broadcast_weights/assert_broadcastable/AssertGuard/pred_id:0\nMloss/dense_loss/broadcast_weights/assert_broadcastable/AssertGuard/switch_f:0\nBloss/dense_loss/broadcast_weights/assert_broadcastable/is_scalar:0\nMloss/dense_loss/broadcast_weights/assert_broadcastable/is_valid_shape/Merge:0\nEloss/dense_loss/broadcast_weights/assert_broadcastable/values/shape:0\nFloss/dense_loss/broadcast_weights/assert_broadcastable/weights/shape:0\022\235\001\nEloss/dense_loss/broadcast_weights/assert_broadcastable/values/shape:0\022Tloss/dense_loss/broadcast_weights/assert_broadcastable/AssertGuard/Assert/Switch_2:0\022\243\001\nMloss/dense_loss/broadcast_weights/assert_broadcastable/is_valid_shape/Merge:0\022Rloss/dense_loss/broadcast_weights/assert_broadcastable/AssertGuard/Assert/Switch:0\022\234\001\nLloss/dense_loss/broadcast_weights/assert_broadcastable/AssertGuard/pred_id:0\022Lloss/dense_loss/broadcast_weights/assert_broadcastable/AssertGuard/pred_id:0\022\236\001\nFloss/dense_loss/broadcast_weights/assert_broadcastable/weights/shape:0\022Tloss/dense_loss/broadcast_weights/assert_broadcastable/AssertGuard/Assert/Switch_1:0\022\232\001\nBloss/dense_loss/broadcast_weights/assert_broadcastable/is_scalar:0\022Tloss/dense_loss/broadcast_weights/assert_broadcastable/AssertGuard/Assert/Switch_3:0"
      }
    }
  }
  collection_def {
    key: "trainable_variables"
    value {
      bytes_list {
        value: "\n\016dense/kernel:0\022\023dense/kernel/Assign\032\"dense/kernel/Read/ReadVariableOp:0(\0012)dense/kernel/Initializer/random_uniform:08\001"
        value: "\n\014dense/bias:0\022\021dense/bias/Assign\032 dense/bias/Read/ReadVariableOp:0(\0012\036dense/bias/Initializer/zeros:08\001"
        value: "\n\021Adam/iterations:0\022\026Adam/iterations/Assign\032%Adam/iterations/Read/ReadVariableOp:0(\0012+Adam/iterations/Initializer/initial_value:08\001"
        value: "\n\tAdam/lr:0\022\016Adam/lr/Assign\032\035Adam/lr/Read/ReadVariableOp:0(\0012#Adam/lr/Initializer/initial_value:08\001"
        value: "\n\rAdam/beta_1:0\022\022Adam/beta_1/Assign\032!Adam/beta_1/Read/ReadVariableOp:0(\0012\'Adam/beta_1/Initializer/initial_value:08\001"
        value: "\n\rAdam/beta_2:0\022\022Adam/beta_2/Assign\032!Adam/beta_2/Read/ReadVariableOp:0(\0012\'Adam/beta_2/Initializer/initial_value:08\001"
        value: "\n\014Adam/decay:0\022\021Adam/decay/Assign\032 Adam/decay/Read/ReadVariableOp:0(\0012&Adam/decay/Initializer/initial_value:08\001"
        value: "\n\030training/Adam/Variable:0\022\035training/Adam/Variable/Assign\032,training/Adam/Variable/Read/ReadVariableOp:0(\0012\025training/Adam/zeros:08\001"
        value: "\n\032training/Adam/Variable_1:0\022\037training/Adam/Variable_1/Assign\032.training/Adam/Variable_1/Read/ReadVariableOp:0(\0012\027training/Adam/zeros_1:08\001"
        value: "\n\032training/Adam/Variable_2:0\022\037training/Adam/Variable_2/Assign\032.training/Adam/Variable_2/Read/ReadVariableOp:0(\0012\027training/Adam/zeros_2:08\001"
        value: "\n\032training/Adam/Variable_3:0\022\037training/Adam/Variable_3/Assign\032.training/Adam/Variable_3/Read/ReadVariableOp:0(\0012\027training/Adam/zeros_3:08\001"
        value: "\n\032training/Adam/Variable_4:0\022\037training/Adam/Variable_4/Assign\032.training/Adam/Variable_4/Read/ReadVariableOp:0(\0012\027training/Adam/zeros_4:08\001"
        value: "\n\032training/Adam/Variable_5:0\022\037training/Adam/Variable_5/Assign\032.training/Adam/Variable_5/Read/ReadVariableOp:0(\0012\027training/Adam/zeros_5:08\001"
      }
    }
  }
  collection_def {
    key: "variables"
    value {
      bytes_list {
        value: "\n\016dense/kernel:0\022\023dense/kernel/Assign\032\"dense/kernel/Read/ReadVariableOp:0(\0012)dense/kernel/Initializer/random_uniform:08\001"
        value: "\n\014dense/bias:0\022\021dense/bias/Assign\032 dense/bias/Read/ReadVariableOp:0(\0012\036dense/bias/Initializer/zeros:08\001"
        value: "\n\021Adam/iterations:0\022\026Adam/iterations/Assign\032%Adam/iterations/Read/ReadVariableOp:0(\0012+Adam/iterations/Initializer/initial_value:08\001"
        value: "\n\tAdam/lr:0\022\016Adam/lr/Assign\032\035Adam/lr/Read/ReadVariableOp:0(\0012#Adam/lr/Initializer/initial_value:08\001"
        value: "\n\rAdam/beta_1:0\022\022Adam/beta_1/Assign\032!Adam/beta_1/Read/ReadVariableOp:0(\0012\'Adam/beta_1/Initializer/initial_value:08\001"
        value: "\n\rAdam/beta_2:0\022\022Adam/beta_2/Assign\032!Adam/beta_2/Read/ReadVariableOp:0(\0012\'Adam/beta_2/Initializer/initial_value:08\001"
        value: "\n\014Adam/decay:0\022\021Adam/decay/Assign\032 Adam/decay/Read/ReadVariableOp:0(\0012&Adam/decay/Initializer/initial_value:08\001"
        value: "\n\030training/Adam/Variable:0\022\035training/Adam/Variable/Assign\032,training/Adam/Variable/Read/ReadVariableOp:0(\0012\025training/Adam/zeros:08\001"
        value: "\n\032training/Adam/Variable_1:0\022\037training/Adam/Variable_1/Assign\032.training/Adam/Variable_1/Read/ReadVariableOp:0(\0012\027training/Adam/zeros_1:08\001"
        value: "\n\032training/Adam/Variable_2:0\022\037training/Adam/Variable_2/Assign\032.training/Adam/Variable_2/Read/ReadVariableOp:0(\0012\027training/Adam/zeros_2:08\001"
        value: "\n\032training/Adam/Variable_3:0\022\037training/Adam/Variable_3/Assign\032.training/Adam/Variable_3/Read/ReadVariableOp:0(\0012\027training/Adam/zeros_3:08\001"
        value: "\n\032training/Adam/Variable_4:0\022\037training/Adam/Variable_4/Assign\032.training/Adam/Variable_4/Read/ReadVariableOp:0(\0012\027training/Adam/zeros_4:08\001"
        value: "\n\032training/Adam/Variable_5:0\022\037training/Adam/Variable_5/Assign\032.training/Adam/Variable_5/Read/ReadVariableOp:0(\0012\027training/Adam/zeros_5:08\001"
      }
    }
  }
  signature_def {
    key: "serving_default"
    value {
      inputs {
        key: "input"
        value {
          name: "input_tensor:0"
          dtype: DT_FLOAT
          tensor_shape {
            dim {
              size: -1
            }
            dim {
              size: 2
            }
          }
        }
      }
      outputs {
        key: "output"
        value {
          name: "dense/Sigmoid:0"
          dtype: DT_FLOAT
          tensor_shape {
            dim {
              size: -1
            }
            dim {
              size: 1
            }
          }
        }
      }
      method_name: "tensorflow/serving/predict"
    }
  }
}
